agent_model_latest.pth (torch, 472075 bytes, 16 tensors)

conv_layers.0.weight f4 [32, 5, 8, 8]
00000000: 7443 f5bd 8f36 8dbe 9e86 493e aff5 613e
00000010: 7a25 c33d 940a 913d 8dec ad3b 42b1 70bd
00000020: 159c a03c 5f64 9bbd 1d66 9e3d a01c a83e
00000030: 4b30 bb3e 3a50 063e bfd8 fb3b 11a4 adbe
00000040: 1213 973c 96f3 8cbc 5c0d 07bc 8b22 353e
00000050: de6f 5f3e 7e5f 433e de75 8c3e 223a 83bd
00000060: 0218 3fbe 28b0 263e ebc1 95bd d056 96bd
00000070: 623f 613d 01c4 7a3e 6228 973e a4d6 96bd
00000080: eaf5 6f3e f9c8 853e f632 32bc d2a5 463d
00000090: 5809 09be 5abe 593e adeb d13e 9cb3 26bd
000000a0: 1d5a 153d 8b1e f03d 7567 563d 25cf 433d
000000b0: ad0d 343d b534 8d3e e146 c23e ffd6 65bd
000000c0: 3094 29be ce4d 8e3d a714 0b3d 3d28 81bb
000000d0: 43ff bd3d 4ab6 1e3e 7326 103e 5d85 0dbc
000000e0: 3665 38bc aa93 d93d 67b8 fd3d ed4c c9bc
000000f0: 113b bb3d 73f7 713c 8770 173d c338 cb3d
00000100: 322b 24be ea25 95bd 95b8 18be c052 7ebe
00000110: 7aca 1a3e ed49 073e 7ddc bb3d 4bb8 bebe
00000120: 0475 03be 38f9 453e a76d b03c 6089 10be
00000130: ef28 c0bd 692e 4dbe 235f bcbd ebbc ffbe
00000140: 5700 ebbd d526 963d bc66 2cbe f774 29bd
00000150: 4965 02be c7e6 c0be d81f 50be 89b7 5cbe
00000160: 48dd 8fbe e18e a6bd fc4a 50be 4391 323d
00000170: e71f d03b 3119 42be f277 30be 2602 71be
00000180: e8fa 303d c000 b23d f512 763c c5d8 bf3d
00000190: 437c a63e b1ec fb3d 3404 433e ba86 9c3d
000001a0: ae25 3ebe 8bc8 1cbd 51f4 843d 7042 d73d
000001b0: 17f2 c43e a91d 313e 4663 623e 2419 d73d
000001c0: 4847 77bd d78f 55bc 1630 7e3c 02da 403c
000001d0: 9329 0ebc dfa7 ff3b b965 be3c d967 013e
000001e0: cc3c 403e 3fb8 823d d494 eabc de48 373d
000001f0: 7169 b23d 297f 3d3d d576 5abc 6934 613e
00000200: 67f2 9a3e da24 bebc 33e2 b2be 452a b1be
00000210: 2822 913e bde8 333e b6ee 65bd 8878 24be
00000220: 9cb5 c53e 54d9 243e 7808 14bf 2a4a f0be
00000230: d789 1d3d 127e 65be dd6f bfbe 885e 32be
00000240: cfa9 db3e 2e4a 943e d2c2 b9be 612f ccbe
00000250: f0aa 28be 485a 28be a727 63be 05f6 71be
00000260: a4f1 eebd 6caa 76be c848 c3be f7fe b5be
00000270: 19d7 b2bd 3c03 50bd 0907 953b d420 5bbd
00000280: ac4e d8bd 066b e6bc 7d49 f8be 70c8 29be
00000290: 0440 593d b1cb 6cbd 7dac 9cbd cf81 dcbd
000002a0: 618d 96be 2ce2 94be b2b3 afbe 671b 9fbb
000002b0: ba8e 233e 2667 993d 6853 83bd e3b8 a6bd
000002c0: bd0c 60bd 47e6 62be 1c65 cb3c e61a 693d
000002d0: ba4e fdbc 1d7c 593d 437c 533d b37a eebb
000002e0: bb7e d9bc 621b f63d 2e87 343e bf44 ed3d
000002f0: d671 0c3d 918c a13c 8086 4f3e acd4 f63d
00000300: 8543 bf3c 91cd 71bc 7c61 0ebe 71ed d6bd
00000310: f1c8 e13a 4819 a13d dcb7 0c3d 0be7 57bd
00000320: 89dc 36ba a541 19bd 66b2 1fbe d469 a7be
00000330: 17e6 7dbe ec35 4bbd c08d 0abe c737 78be
00000340: 540c 9ebe b8a0 82be 481c 91be 0f20 41be
00000350: f522 4abe 5dfd 0dbe ef49 48bd 08c0 a9bd
00000360: 2ca4 41be 5b63 57bd 5110 bfbe bb61 6cbe
00000370: 5295 17bd d28e c93d 0618 c93d 12d3 00bd
00000380: 815a 183e 5b86 b1be a388 4ebf 39b6 10bf
00000390: 072b f8bd 90d2 583d a232 cbbd e7da 92be
000003a0: f337 b83d e76d 76be b233 00bf e7b4 00bf
000003b0: 72fe ddbd 0069 c43c 15ad 15bd a89e a63c
000003c0: 05e8 6abd b76e e53b eab5 06be aada 71be
000003d0: ad62 72be 0e95 8fbd 00cc 98bd 0da8 44bd
000003e0: aaac eabd 9579 4a3e 6b8c 223e 51a5 913d
000003f0: ed4a 023c b4de eabd e96d d6bd 663b bc3d
-0.11975756 -0.27580687 0.19680259 0.22066377 0.095286325 0.07082096 0.00530774 -0.058762796
0.019605676 -0.07587504 0.0773432 0.3283434 0.36560282 0.13116542 0.0076857503 -0.33914235
0.01844171 -0.017205995 -0.008242931 0.17688958 0.21820018 0.19079396 0.27433676 -0.06407572
-0.18661502 0.16278136 -0.073123775 -0.07340777 0.054992087 0.24488832 0.29522997 -0.07365158
0.23433653 0.26129892 -0.010876408 0.048497982 -0.1338247 0.2126402 0.4100012 -0.040698633
0.03646289 0.117245756 0.052344758 0.04780497 0.043958355 0.27579275 0.379447 -0.05611324
-0.16560435 0.06948434 0.033955242 -0.0039415644 0.09277203 0.15499225 0.14077167 -0.008637753
-0.011254599 0.10623868 0.123886876 -0.024572814 0.091421254 0.014768469 0.03697255 0.09922936
-0.16032103 -0.07282622 -0.14914162 -0.24836254 0.15116301 0.13211794 0.09172914 -0.3724998
-0.12837607 0.1933335 0.021536661 -0.14114904 -0.093828075 -0.20037235 -0.091978334 -0.4994882
-0.11474674 0.07331625 -0.16836065 -0.041371312 -0.1273395 -0.3767607 -0.20324647 -0.21554388
-0.28098512 -0.08132721 -0.20341104 0.043595564 0.0063514593 -0.18954922 -0.17233256 -0.23535976
0.043208033 0.08691549 0.015019168 0.093675174 0.3251668 0.12301005 0.19044572 0.076428846
-0.18569061 -0.03827719 0.06491912 0.10510719 0.3846595 0.1729647 0.22108182 0.10502842
-0.060370713 -0.013034782 0.015514394 0.011770727 -0.008676904 0.007801994 0.023241865 0.12637271
0.18773192 0.063827984 -0.02863542 0.044747226 0.087115176 0.046263848 -0.013333996 0.21992649
0.30263063 -0.023210932 -0.349382 -0.34602562 0.28346372 0.17569251 -0.056135856 -0.16061604
0.3861512 0.16098529 -0.5782542 -0.46931583 0.038461532 -0.22411373 -0.37390032 -0.17418873
0.4290299 0.28962845 -0.3628145 -0.39879897 -0.16471457 -0.1644069 -0.22183095 -0.23629005
-0.11667183 -0.24088448 -0.38141465 -0.35546085 -0.08732433 -0.050784335 0.004547958 -0.053498104
-0.105618805 -0.028127205 -0.48493567 -0.16580367 0.053039566 -0.057811443 -0.07650087 -0.107669465
-0.2940474 -0.29078805 -0.34316784 -0.0048555615 0.15972415 0.07490377 -0.06412393 -0.08140733
-0.05469965 -0.22158156 0.024828486 0.056910418 -0.030921329 0.05309688 0.051632177 -0.0072778105
-0.026549688 0.120169416 0.17629692 0.11585378 0.03428825 0.019720348 0.20266151 0.12052283
0.023347626 -0.0147584835 -0.13904375 -0.10494507 0.0017226023 0.0786615 0.03435503 -0.052710574
-0.00069756113 -0.03741612 -0.15595397 -0.32697928 -0.24794804 -0.04961197 -0.13530636 -0.24240027
-0.3086878 -0.25513244 -0.2834189 -0.18859886 -0.19739898 -0.13866182 -0.048898634 -0.0828858
-0.18910283 -0.052584987 -0.37317136 -0.23084156 -0.037007637 0.09841694 0.09819035 -0.031451292
0.14878275 -0.34672818 -0.8067724 -0.5652805 -0.12117582 0.052935183 -0.09921767 -0.28682634
0.089950465 -0.24065362 -0.5007888 -0.50276035 -0.10839547 0.02397585 -0.036542017 0.020339325
-0.057350177 0.0070017236 -0.13155332 -0.2361857 -0.23670454 -0.07010852 -0.07460785 -0.04801183
-0.11458714 0.19772942 0.15873878 0.0711161 0.007952434 -0.114682585 -0.104701824 0.09191017

conv_layers.0.bias f4 [32]
00000000: 6850 d13d ef6c 3d3e b67d 633d 0f78 153c
00000010: eeec d13f fd19 013e 7363 043e 0735 1b3e
00000020: fba2 053e 065e 043e 8f1b ff3d dc19 653e
00000030: 48d5 17bc e16c 563e 5685 9c3e 01cd 6dbf
00000040: 98fe 223e ff77 69bc e546 db3d c890 633e
00000050: 1a10 023e a455 353d 3676 9dbf aa28 d8bc
00000060: 7974 4ebd 46ca ea3e 8215 bd3d f219 d03e
00000070: 6309 aabe 3a89 053e 5c4c aa3d cabb 04bf
0.102204144 0.18498586 0.05553981 0.0091228625 1.640043 0.1260757 0.12928562 0.15156947
0.13050453 0.12926492 0.12456428 0.22373146 -0.009267159 0.20939972 0.30570477 -0.92890936
0.15917432 -0.014249801 0.107068814 0.22223198 0.12701455 0.044271126 -1.23017 -0.026386578
-0.050404046 0.45857447 0.09232618 0.40644795 -0.33210286 0.13040629 0.08315346 -0.51849043

conv_layers.2.weight f4 [64, 32, 4, 4]
00000000: 7251 c8bd ff90 37be 2b36 1e3e c226 533d
00000010: a196 2c3e 271a 8d3e fdb6 1dbe a2f9 6cbe
00000020: abec e5be e81e 93be 84d2 d5bd 7f0f a63c
00000030: 9af2 29be 6551 a8ba 9a77 ce3d 106d 5abe
00000040: 1f0f 433e c600 3d3e b409 20be a5bb c73c
00000050: b0eb 9bbd 70c2 17bf 594d 6cbe 74b7 e9bb
00000060: d789 38bf 9844 80be 7945 5e3b 6fd1 42be
00000070: 21b5 bdbb b6ac febd 7551 743d 5a12 08be
00000080: 7ddf 6e3e a2fd cfbd ceec 2e3e 7658 0d3e
00000090: 04d1 d3be 8b90 61bd 2b5c b73d 206c c0bd
000000a0: a811 1bbe d03d 52be bc39 e5bd 02b4 ef3d
000000b0: e69d 493e 054e 85be 0dcb 033e b414 0d3e
000000c0: 32db 633e 98de 52be 26cc 17bd 42e0 7b3e
000000d0: 3e5e 003d f951 1fbe bc7f 89bd 94e0 72be
000000e0: 54f7 933d 8cb3 a03d 8c9c 7bbe efca f3bd
000000f0: 0cc2 213e 6cc0 0dbe 13ac 8bbe 5f10 923d
00000100: 5a02 083f 5d11 a83e 2033 5c3e 4c35 203f
00000110: 0404 e43e abc1 123f 0df0 5ebf 9007 1fbe
00000120: 8df6 e43e 10d6 7bbf 7376 25bf 98a5 c6bc
00000130: 6f4f 1fbf f0f2 8abe 3cf2 dc3e 2764 90be
00000140: a024 1e3e 3c75 463c e741 2abe e348 cfbd
00000150: 6be0 8fbe d19b 403e fb84 babe 571f 3b3f
00000160: 0b3a e63e 446e b33e 9cdd 89bd b3c2 93be
00000170: f640 d2be 9b97 963e 67e8 88be f2fc b2be
00000180: 7a5f 553e 8be7 e3be bc6b c53e 36aa cc3d
00000190: f062 8f3e b437 033d 0c38 3b3d 412a 5ebd
000001a0: 2cbe 83be 80e0 47bf ce28 b8be faeb 163d
000001b0: a498 f7bc 3c27 133d 10d5 4bbe 65b9 62be
000001c0: d173 1d3d eeb9 483e d036 4abe b4c8 a1bd
000001d0: a8fb 083e 33e9 babe fec6 ea3b a09a 6b3d
000001e0: e1a5 33be 5fd5 793d 94de 7e3d 1ae0 2d3e
000001f0: 9851 493e 06d1 7b3c d469 f93d cd81 f8bd
00000200: c6ae ebbe 1343 26bd 1141 ef3d 34f4 973e
00000210: b111 8dbe e86c 7bbe 1d26 34be 0c49 8dbd
00000220: c956 3a3e 933b 26be c9fd 30be b21b 1c3d
00000230: f7b6 893e d219 8abd f0a9 a9bd b297 b83d
00000240: 210c 48be cb82 5bbe a5c4 8dbe b4f7 aa3e
00000250: 6e4b 4dbe eed8 44bd 3860 37be 631e 0cbe
00000260: c3ad debe d621 f13b 9598 54be 9117 cebc
00000270: 0ebc 97be de00 b4bd 2b01 cfbd e9dc 1bbe
00000280: c6d4 40be 08b6 80be 020f ec3a 6c06 143d
00000290: 40e3 b4bd 3e75 10bf 496c edbe 59d3 e5bd
000002a0: 8a74 18bf c0c6 68be e24e 0fbe f90d 683e
000002b0: 6908 00be 0dae 243d 59b6 8c3c ed35 8e3e
000002c0: 60ab 7e3e 16a6 89bd 762e 33be 95b9 073f
000002d0: 2e64 a7be 28a9 453f e75a 19bf 35f7 3b3d
000002e0: 0c62 3e3d 7e67 06bf 60f3 a7bd 070c 6f3d
000002f0: a72d 0e3f 395b 14bf 65fa c8bc f8d9 03bf
00000300: f5d1 cb3d c686 97bd c293 a8be 2837 10be
00000310: d91b 193e f3ea 7b3c 2823 80be 89e9 69be
00000320: 7a2f 0dbe b4ab a13e c95c b53d cafa 473d
00000330: bb22 b53e cdeb 59be 19a5 41be 1634 7bbe
00000340: bf26 633e 8247 8bbe ac3b 62be d076 cebd
00000350: ccb0 31be 10df c6be 4e0d 47bd 296e 0cbe
00000360: e364 823c 25b8 8cbe 14b5 823b f7de 603c
00000370: 7775 3b3e b786 22bd acff b53e 553f 463e
00000380: 3ddd 23bc ce83 c1be 0b2c 9ebe 3ca9 4d3e
00000390: 2e48 7abe 564b 3abc cdaa a9bd 6b18 d1be
000003a0: ce0c aebe 4bbf ca3d ad79 b63e 86d5 03be
000003b0: 13f2 cbbe 8009 8ebe 3013 8f3e a430 7bbe
000003c0: b6f0 9cbe 44fb 8a3d ac3b 3abf 9f4b ba3e
000003d0: fa0c cebe 4bb1 66bf 8a70 253e a48e 8fbe
000003e0: 96fd 683d 632f b53f 8a97 543e 4dce 733e
000003f0: df63 ca3d 0eba d33d 018d f73e 5aee 88bf
-0.097811595 -0.17926405 0.15450351 0.051550634 0.16854335 0.27559015 -0.15401836 -0.23142102
-0.44907126 -0.28734517 -0.10440543 0.020271061 -0.16596451 -0.001284164 0.10081406 -0.21330667
0.19048737 0.18457326 -0.15628701 0.024381468 -0.07613313 -0.59281063 -0.23076381 -0.007132465
-0.72085327 -0.25052333 0.003391592 -0.19025205 -0.0057894145 -0.12435286 0.059647996 -0.1328825
0.23327442 -0.101557985 0.17082521 0.13803276 -0.41370404 -0.055069488 0.089531265 -0.09395623
-0.15143454 -0.20531392 -0.111926526 0.11704256 0.1968914 -0.26036087 0.12870426 0.13777429
0.22251585 -0.20592725 -0.037059925 0.24597266 0.031339876 -0.15558614 -0.067138165 -0.23718482
0.072249085 0.07846746 -0.24571437 -0.11903941 0.1579668 -0.13842934 -0.2727972 0.07132029
0.5312859 0.32825747 0.21503878 0.62581325 0.44534314 0.57326764 -0.8708504 -0.15530229
0.44719353 -0.9837351 -0.64633864 -0.024248883 -0.6223058 -0.27138472 0.4315356 -0.2820141
0.15443659 0.012112912 -0.16626702 -0.10121324 -0.28100905 0.18809439 -0.3642958 0.73094696
0.44966158 0.35045063 -0.06731722 -0.2885948 -0.41065186 0.2941254 -0.2673981 -0.34958607
0.20837203 -0.4451259 0.38558757 0.09993403 0.2800517 0.032035545 0.045707747 -0.054239515
-0.25731027 -0.78076935 -0.35968632 0.03684614 -0.030224152 0.03592609 -0.19905496 -0.22141035
0.03844053 0.19602177 -0.19747472 -0.07899609 0.13377249 -0.36506042 0.007164835 0.05752051
-0.17543747 0.060994502 0.062223986 0.16980019 0.19660032 0.015369659 0.12178388 -0.121341325
-0.4603178 -0.04059131 0.11682332 0.296785 -0.2755256 -0.24553263 -0.17592664 -0.06898698
0.18197168 -0.16233663 -0.17284311 0.03811235 0.26897404 -0.06743206 -0.08284366 0.090133086
-0.19535877 -0.21436612 -0.2768909 0.33392107 -0.20048305 -0.048058443 -0.17907798 -0.13683467
-0.43491945 0.00735877 -0.2076133 -0.025157722 -0.29635662 -0.08789228 -0.10107645 -0.1522099
-0.18831167 -0.2513888 0.0018009844 0.036138937 -0.08832407 -0.564289 -0.46371678 -0.11221952
-0.59552824 -0.22732067 -0.13994935 0.2266158 -0.12503208 0.04020505 0.017176794 0.27775517
0.24870062 -0.067211315 -0.17498192 0.5301755 -0.3269362 0.77211237 -0.5990433 0.045890052
0.046480224 -0.52501667 -0.08200717 0.05836108 0.5553841 -0.57951695 -0.02453346 -0.5150447
0.099521555 -0.07398753 -0.3292523 -0.1408354 0.1495203 0.0153758405 -0.25026822 -0.22842993
-0.13787642 0.31576312 0.08855588 0.048823155 0.3537806 -0.21281357 -0.18910636 -0.24531588
0.22182749 -0.27202994 -0.22093076 -0.100812554 -0.17352599 -0.38842058 -0.048596673 -0.13713898
0.015917247 -0.2748424 0.0039888714 0.013725034 0.18306528 -0.039679255 0.35546625 0.19360097
-0.010001478 -0.37795871 -0.30892977 0.20084089 -0.24441597 -0.011370501 -0.08284531 -0.40838942
-0.33994144 0.098997675 0.35639706 -0.12874421 -0.39833125 -0.27741623 0.27944326 -0.24530274
-0.30652398 0.06786206 -0.727473 0.3638582 -0.40244275 -0.9011428 0.16156211 -0.28038514
0.056882463 1.4155086 0.20760933 0.23809166 0.0988233 0.103382215 0.48349765 -1.0697739

conv_layers.2.bias f4 [64]
00000000: eb74 55c0 b478 36bf cfc6 1ac0 c419 eabf
00000010: 53f5 c23f 493c 5bbf 9e4c 6ec0 6e03 1ac0
00000020: bf8a 6ebf 5b1b 3dc0 737f 8b3d 09cd 93bf
00000030: 8b66 3bc0 bf69 22c0 a802 efbf 78dc 3fbf
00000040: cb9d 79c0 1c06 2fbf d83f 99bf 04ff 8abf
00000050: f91a 01c0 2078 91bf a56d f2bf b084 293f
00000060: 9228 29c0 d3f6 02c0 9250 c93f 1582 9ec0
00000070: 7667 32bf f790 f4bf 8de2 91c0 9e3e bfbd
00000080: 9aa9 3fbf 4c85 15c0 c113 6abf 2434 23c0
00000090: db17 d2bf c198 58bf 8b51 afbe f5b3 e5bf
000000a0: 2245 8bbf 1057 d4bf 5289 3cbf 65b9 b2bf
000000b0: 447a eabe 9a32 67c0 54de 09c0 bced c3be
000000c0: c537 6ac0 ebbc 10c0 ce62 e2bf 30d8 2ec0
000000d0: 0817 943f 0359 38c0 2de6 08c0 b2fb 83bf
000000e0: 2a02 14c0 f238 1cc0 c4ae e2bf 9c1c 8dbf
000000f0: e93b 1abf c3f9 2dc0 8c83 27c0 2888 d9bf
-3.335261 -0.7127793 -2.4183843 -1.8289113 1.5231117 -0.8563886 -3.7234263 -2.4064593
-0.9318046 -2.9547946 0.068114184 -1.1546947 -2.9281337 -2.5377042 -1.8672686 -0.74945784
-3.900256 -0.683687 -1.1972609 -1.0859075 -2.0172713 -1.1364784 -1.8939711 0.6621809
-2.6431012 -2.046315 1.5727713 -4.953379 -0.6968912 -1.910674 -4.558905 -0.09338115
-0.74868166 -2.3362608 -0.9143639 -2.5500574 -1.641353 -0.84608084 -0.342419 -1.7945544
-1.0880473 -1.6589069 -0.73647034 -1.3962828 -0.45796406 -3.6124635 -2.1541948 -0.38267314
-3.659654 -2.2615306 -1.7686403 -2.731945 1.1569529 -2.8804328 -2.1390488 -1.0311186
-2.312632 -2.4409757 -1.7709584 -1.1024356 -0.60247666 -2.7183692 -2.617404 -1.6994677

conv_layers.4.weight f4 [64, 64, 3, 3]
00000000: c74d abbe e09f bc3f 52d2 c6bd 7682 44bf
00000010: 5ded 283f 08bf 2fbf 3a57 393f 9877 72c0
00000020: e01d b13f 9e3f 8cbf 64f1 8f3c a7aa 5abf
00000030: bd14 63be c9ad f73e bfad e9be cb5d bf3e
00000040: 5963 3fbf dc49 56be fa7a ddbe 9b6d 2fc0
00000050: 80ce 9d3f 6caf 68bd c088 7b3e aee3 e8be
00000060: f4ce 7cbf c7d6 bcbf 270d 21be 85cd d3bf
00000070: 8bde dd3e 3ffd e1be ca83 16bf 4798 8fbf
00000080: 0d35 403f 5c5f 923e 0e5e 1fbf 2cdb 1ebc
00000090: 1753 e73b cc53 79bf 85af 5e3f 288f 6c3d
000000a0: fa6b 34bf 3cef fabf 9fd5 873e 53dd 84bd
000000b0: c5bb 983e 46cd e0bf 8820 e0be 2a10 403f
000000c0: d036 363e 02cc 8b3f 3216 a13d 3772 5f3d
000000d0: d3ee 003f 8b88 143d 05bb 9d3e 0aa4 c6be
000000e0: ca2d d4be 29ee 0d3f 09fc 0a3f bab7 3e3f
000000f0: 9f44 ebbe 5919 a4be 15b4 013f d520 e43c
00000100: f604 f2be 8f0d 713f 6cfb 14bf bdcf d33e
00000110: c8d8 263e 345e 1d3e c17e 2ac0 c0ae e1bf
00000120: 3fdd b3bf 75c7 0d3e b905 b1be f36f 0ebf
00000130: 71d3 6cbf a7e6 febe 236d 023f 6b21 ab3e
00000140: a8e5 8d3e 5a3d 683c 9aac db3d 09ac 493f
00000150: ad76 5fbf 45fa 4cbf 7c84 b2bf bff4 0bbe
00000160: ab97 883f 3164 3b3f 70b7 d53e 0bd9 a63e
00000170: 7243 213e 80bd 72bf d3ae 163e 6b34 a73e
00000180: 51c3 553f 46ba 673d 1cee 0d3f 53f3 cbbe
00000190: 751a 8c3f 304f 70bf fb3c 31bf e3f7 103f
000001a0: baa0 6ebf 87a8 d6bf e241 27c0 1cad d5bd
000001b0: 1000 a3bc abec 3cbf 41ba fbbc c9a4 06bf
000001c0: 9401 883f 057b ea3e d217 f93e 13a6 8abf
000001d0: 2a2e 05c0 16b8 3abf 8dbe 3c3e d1f7 7fbe
000001e0: 0a17 11be 2f66 6a3d c518 993f f14f a43f
000001f0: d8c7 433f bd7a 2ebe 3ddd 98bd ff30 cbbe
00000200: a463 b1be 4410 1b3f c9c4 043e 657e ebbe
00000210: 127b 103f a098 7cc0 858c 483f f485 a8be
00000220: a065 9a3e b903 3dbe 3f41 723f e96f c3be
00000230: 6aac 74be 2861 9cbf 8ae1 0d3f 84fc 75bf
00000240: 7399 78bd 40de babe b9ab 8a3f 2a18 ea3d
00000250: 44b8 df3d 3c1b e53e 61d8 f83f 9201 8cbe
00000260: 398f 2640 3f22 a7be ecc4 e13e 2861 2a3f
00000270: 464b e13e 6bf6 263f 8a40 00c0 7c91 cabf
00000280: df4d fd3d 1f2d d93e 668d bbbe b84a 3b3e
00000290: 77fc e03d badc 3c3f 6861 21bf 2f27 b4be
000002a0: 8513 a73e 8508 6e3f b06c 51be fac9 10bf
000002b0: 771f df3c 4447 1cbe 29cb 2f3f 7c4f 30bf
000002c0: aae0 f2be f62e 6b3e cd49 b23f a3c0 8a3f
000002d0: 6055 7f3e 09d4 633e 1c75 55be 8ae1 bfbe
000002e0: fc55 a4be 8b23 24bd ad67 e63f 37d4 da3e
000002f0: 5e50 30c0 f759 c03d 202f 98bf 7c3f 53bf
00000300: 8534 a43f 9251 aabf 957d 0fbf 9715 4e3f
00000310: 84a1 20c0 d0f3 d93d e18b 20bf 4284 90be
00000320: ec9d 83bf 748a a8bd 3b8e abbf 6607 26be
00000330: ca1d 18be 1807 35bf a885 3b3f f5de 963d
00000340: cd55 49bf 9db4 0bbe 7e50 0a3f ea20 bd3e
00000350: 16a4 0cbf 8d6a 92be 3124 9fbf 661e 2f3f
00000360: 0321 313f 0e3c ad3e 482a 96bf 9f23 78bf
00000370: 7661 693f 1352 bb3d 1fa2 09bf bebe 8a3f
00000380: 3be4 893f 3fb1 ae3e ef59 643e b4a8 80bf
00000390: 1d92 5240 96a3 9fbf f111 39c0 294b 023f
000003a0: a6f8 fbbd 9023 03bf 3140 e7be 927d 39bf
000003b0: 52f0 cdbc fe65 873e 6504 29bf 63a7 80be
000003c0: 76ef 803f 4cc1 33bf 05a0 bf3e d36d 96bd
000003d0: ee7f 613f 0ab6 c03d b872 8abf ff4e 33bf
000003e0: 0a54 42c0 c9a7 96bf a6a7 cabf 6db8 0e3f
000003f0: 44c7 2fbc 46fd 7fbf 8b96 373f 67e9 b6bf
-0.33457777 1.473629 -0.09708084 -0.7676157 0.6598719 -0.68650866 0.7239872 -3.7885494
1.3837242 -1.0956914 0.017571159 -0.85416645 -0.2217588 0.48374775 -0.4564037 0.37376246
-0.7476097 -0.20926613 -0.43257886 -2.7410648 1.2328644 -0.05680792 0.24563885 -0.45486206
-0.98753285 -1.4753045 -0.15727673 -1.6547095 0.4333385 -0.44138524 -0.58794844 -1.1218346
0.7508095 0.28588378 -0.6225289 -0.009695809 0.0070594656 -0.9739349 0.8698657 0.057753712
-0.7047726 -1.9604259 0.26530167 -0.06487527 0.29830757 -1.7562644 -0.4377482 0.75024664
0.17794347 1.0921633 0.078655615 0.054552283 0.50364417 0.03626303 0.30806747 -0.38797027
-0.41441184 0.5544153 0.54290825 0.74499094 -0.4595079 -0.3205059 0.5066541 0.027847687
-0.4726941 0.94161314 -0.5819614 0.4136943 0.16293633 0.15367967 -2.6639864 -1.7631454
-1.4051894 0.13845618 -0.3457468 -0.5563957 -0.92510134 -0.4978535 0.5094778 0.33423933
0.27714276 0.014174784 0.107262805 0.7877813 -0.8729046 -0.8006938 -1.3946681 -0.13667582
1.0671285 0.73199755 0.41741514 0.32587466 0.15748385 -0.94820404 0.14715128 0.3265718
0.83501154 0.05657413 0.5544145 -0.3983408 1.0945574 -0.9387083 -0.69233674 0.56628245
-0.93214 -1.677018 -2.6133962 -0.104334086 -0.01989749 -0.73798627 -0.030728461 -0.5259519
1.0625482 0.4579698 0.48650986 -1.0831932 -2.0809426 -0.7293714 0.18432064 -0.24996878
-0.14168945 0.057226356 1.1960684 1.2836896 0.7647681 -0.17039008 -0.07464073 -0.3968582
-0.34646332 0.60571694 0.12965693 -0.4599487 0.5643779 -3.9468155 0.78339416 -0.32914698
0.3015566 -0.18458451 0.9463081 -0.38171318 -0.23893896 -1.221715 0.5542227 -0.96088433
-0.060693216 -0.36497688 1.0833656 0.1143039 0.10923818 0.4474734 1.9441034 -0.27344948
2.6024916 -0.32643315 0.44095552 0.665545 0.44002742 0.65219754 -2.0039392 -1.5825648
0.12368368 0.42417237 -0.36631316 0.18290222 0.10985654 0.737743 -0.63039255 -0.35186145
0.3263208 0.9298175 -0.20451617 -0.5655819 0.027236683 -0.1526156 0.6866937 -0.68871284
-0.4743703 0.22967133 1.3928772 1.0840038 0.24934912 0.22248854 -0.20845455 -0.3747676
-0.3209685 -0.04007296 1.8000389 0.42740032 -2.7549052 0.093921594 -1.1889381 -0.82518744
1.2828528 -1.3306143 -0.56051 0.80501693 -2.5098581 0.10642207 -0.6271344 -0.28225905
-1.0282569 -0.08229533 -1.340278 -0.1621376 -0.14855114 -0.7071395 0.7325082 0.073667444
-0.78646547 -0.13643117 0.5402907 0.36939174 -0.54937875 -0.28596917 -1.243292 0.6840576
0.69190997 0.3383488 -1.1731653 -0.96929353 0.9116434 0.09146514 -0.53763 1.083946
1.0772775 0.34119603 0.22299932 -1.0051484 3.290168 -1.2471797 -2.89172 0.50895935
-0.12303285 -0.5122614 -0.45166162 -0.7245723 -0.025139008 0.26445 -0.6602233 -0.25127706
1.0073078 -0.7021682 0.37426773 -0.07345166 0.8808583 0.09409721 -1.0816259 -0.70042413
-3.0363793 -1.1769954 -1.5832412 0.5575016 -0.010728661 -0.9999584 0.71714085 -1.4289979

conv_layers.4.bias f4 [64]
00000000: 914c 903e 4144 96be 5a90 e83b 048d 73bd
00000010: 6da8 173e 9605 d7be e596 9ebe cbf7 1dbd
00000020: 4fc4 aebd 96da a83e 4ecb 723d 6bf2 0dbe
00000030: 64ac 32be 8018 50bd e04f 75be 9f10 ae40
00000040: 7d57 39bf b344 e2bd 1fef 0cbf 0a5d 80bd
00000050: cbf8 88bf 0ccf 0cbd e226 d13f a2f9 96be
00000060: 65cf d03e dcc1 80bd f783 e5be eaf9 8ebf
00000070: 39b6 f5bc d89a c93d bacc b3be c24b 9abd
00000080: 4804 6140 f186 23c0 7882 8cba 8884 fe3f
00000090: 22e4 80bf 8aeb 90bd 4f29 95ba a7d2 ad3f
000000a0: e59a 03bf ce60 bdbc bec0 97be 33df 5abf
000000b0: 7346 4b3e f676 273e f722 933f f9a2 37be
000000c0: 5258 0bbe 501b 613f e3fe 07bd 7b74 1cbf
000000d0: 286d d93f 3492 aabc 4cdf d23f 4b8e 973e
000000e0: 6cc9 4c3c c03f ab3f d7b8 2740 4e84 1bbd
000000f0: 497e 0140 27af 12bf 8984 bb3d cda9 153e
0.28183416 -0.2934895 0.007097286 -0.059460655 0.14810343 -0.4199645 -0.30974498 -0.038566392
-0.08533537 0.32979268 0.059275918 -0.13862006 -0.17448574 -0.050804615 -0.23956251 5.439529
-0.7239912 -0.110482596 -0.5505237 -0.06267746 -1.0700926 -0.034377143 1.6339991 -0.2948733
0.4078323 -0.06286976 -0.44827244 -1.1170018 -0.029994117 0.09843987 -0.3511713 -0.07533981
3.5158863 -2.5551112 -0.0010720035 1.9884195 -1.0069621 -0.070761755 -0.0011380109 1.3579911
-0.51408225 -0.02311745 -0.29639238 -0.85496825 0.19851093 0.16353974 1.1495045 -0.17933263
-0.1360791 0.879323 -0.033202063 -0.61115235 1.6986437 -0.020821668 1.6474395 0.29600748
0.012499195 1.337883 2.6206567 -0.037967972 2.0233328 -0.5729851 0.091561384 0.14615555

network.0.0.weight f4 [32, 5, 8, 8]
00000000: 7443 f5bd 8f36 8dbe 9e86 493e aff5 613e
00000010: 7a25 c33d 940a 913d 8dec ad3b 42b1 70bd
00000020: 159c a03c 5f64 9bbd 1d66 9e3d a01c a83e
00000030: 4b30 bb3e 3a50 063e bfd8 fb3b 11a4 adbe
00000040: 1213 973c 96f3 8cbc 5c0d 07bc 8b22 353e
00000050: de6f 5f3e 7e5f 433e de75 8c3e 223a 83bd
00000060: 0218 3fbe 28b0 263e ebc1 95bd d056 96bd
00000070: 623f 613d 01c4 7a3e 6228 973e a4d6 96bd
00000080: eaf5 6f3e f9c8 853e f632 32bc d2a5 463d
00000090: 5809 09be 5abe 593e adeb d13e 9cb3 26bd
000000a0: 1d5a 153d 8b1e f03d 7567 563d 25cf 433d
000000b0: ad0d 343d b534 8d3e e146 c23e ffd6 65bd
000000c0: 3094 29be ce4d 8e3d a714 0b3d 3d28 81bb
000000d0: 43ff bd3d 4ab6 1e3e 7326 103e 5d85 0dbc
000000e0: 3665 38bc aa93 d93d 67b8 fd3d ed4c c9bc
000000f0: 113b bb3d 73f7 713c 8770 173d c338 cb3d
00000100: 322b 24be ea25 95bd 95b8 18be c052 7ebe
00000110: 7aca 1a3e ed49 073e 7ddc bb3d 4bb8 bebe
00000120: 0475 03be 38f9 453e a76d b03c 6089 10be
00000130: ef28 c0bd 692e 4dbe 235f bcbd ebbc ffbe
00000140: 5700 ebbd d526 963d bc66 2cbe f774 29bd
00000150: 4965 02be c7e6 c0be d81f 50be 89b7 5cbe
00000160: 48dd 8fbe e18e a6bd fc4a 50be 4391 323d
00000170: e71f d03b 3119 42be f277 30be 2602 71be
00000180: e8fa 303d c000 b23d f512 763c c5d8 bf3d
00000190: 437c a63e b1ec fb3d 3404 433e ba86 9c3d
000001a0: ae25 3ebe 8bc8 1cbd 51f4 843d 7042 d73d
000001b0: 17f2 c43e a91d 313e 4663 623e 2419 d73d
000001c0: 4847 77bd d78f 55bc 1630 7e3c 02da 403c
000001d0: 9329 0ebc dfa7 ff3b b965 be3c d967 013e
000001e0: cc3c 403e 3fb8 823d d494 eabc de48 373d
000001f0: 7169 b23d 297f 3d3d d576 5abc 6934 613e
00000200: 67f2 9a3e da24 bebc 33e2 b2be 452a b1be
00000210: 2822 913e bde8 333e b6ee 65bd 8878 24be
00000220: 9cb5 c53e 54d9 243e 7808 14bf 2a4a f0be
00000230: d789 1d3d 127e 65be dd6f bfbe 885e 32be
00000240: cfa9 db3e 2e4a 943e d2c2 b9be 612f ccbe
00000250: f0aa 28be 485a 28be a727 63be 05f6 71be
00000260: a4f1 eebd 6caa 76be c848 c3be f7fe b5be
00000270: 19d7 b2bd 3c03 50bd 0907 953b d420 5bbd
00000280: ac4e d8bd 066b e6bc 7d49 f8be 70c8 29be
00000290: 0440 593d b1cb 6cbd 7dac 9cbd cf81 dcbd
000002a0: 618d 96be 2ce2 94be b2b3 afbe 671b 9fbb
000002b0: ba8e 233e 2667 993d 6853 83bd e3b8 a6bd
000002c0: bd0c 60bd 47e6 62be 1c65 cb3c e61a 693d
000002d0: ba4e fdbc 1d7c 593d 437c 533d b37a eebb
000002e0: bb7e d9bc 621b f63d 2e87 343e bf44 ed3d
000002f0: d671 0c3d 918c a13c 8086 4f3e acd4 f63d
00000300: 8543 bf3c 91cd 71bc 7c61 0ebe 71ed d6bd
00000310: f1c8 e13a 4819 a13d dcb7 0c3d 0be7 57bd
00000320: 89dc 36ba a541 19bd 66b2 1fbe d469 a7be
00000330: 17e6 7dbe ec35 4bbd c08d 0abe c737 78be
00000340: 540c 9ebe b8a0 82be 481c 91be 0f20 41be
00000350: f522 4abe 5dfd 0dbe ef49 48bd 08c0 a9bd
00000360: 2ca4 41be 5b63 57bd 5110 bfbe bb61 6cbe
00000370: 5295 17bd d28e c93d 0618 c93d 12d3 00bd
00000380: 815a 183e 5b86 b1be a388 4ebf 39b6 10bf
00000390: 072b f8bd 90d2 583d a232 cbbd e7da 92be
000003a0: f337 b83d e76d 76be b233 00bf e7b4 00bf
000003b0: 72fe ddbd 0069 c43c 15ad 15bd a89e a63c
000003c0: 05e8 6abd b76e e53b eab5 06be aada 71be
000003d0: ad62 72be 0e95 8fbd 00cc 98bd 0da8 44bd
000003e0: aaac eabd 9579 4a3e 6b8c 223e 51a5 913d
000003f0: ed4a 023c b4de eabd e96d d6bd 663b bc3d
-0.11975756 -0.27580687 0.19680259 0.22066377 0.095286325 0.07082096 0.00530774 -0.058762796
0.019605676 -0.07587504 0.0773432 0.3283434 0.36560282 0.13116542 0.0076857503 -0.33914235
0.01844171 -0.017205995 -0.008242931 0.17688958 0.21820018 0.19079396 0.27433676 -0.06407572
-0.18661502 0.16278136 -0.073123775 -0.07340777 0.054992087 0.24488832 0.29522997 -0.07365158
0.23433653 0.26129892 -0.010876408 0.048497982 -0.1338247 0.2126402 0.4100012 -0.040698633
0.03646289 0.117245756 0.052344758 0.04780497 0.043958355 0.27579275 0.379447 -0.05611324
-0.16560435 0.06948434 0.033955242 -0.0039415644 0.09277203 0.15499225 0.14077167 -0.008637753
-0.011254599 0.10623868 0.123886876 -0.024572814 0.091421254 0.014768469 0.03697255 0.09922936
-0.16032103 -0.07282622 -0.14914162 -0.24836254 0.15116301 0.13211794 0.09172914 -0.3724998
-0.12837607 0.1933335 0.021536661 -0.14114904 -0.093828075 -0.20037235 -0.091978334 -0.4994882
-0.11474674 0.07331625 -0.16836065 -0.041371312 -0.1273395 -0.3767607 -0.20324647 -0.21554388
-0.28098512 -0.08132721 -0.20341104 0.043595564 0.0063514593 -0.18954922 -0.17233256 -0.23535976
0.043208033 0.08691549 0.015019168 0.093675174 0.3251668 0.12301005 0.19044572 0.076428846
-0.18569061 -0.03827719 0.06491912 0.10510719 0.3846595 0.1729647 0.22108182 0.10502842
-0.060370713 -0.013034782 0.015514394 0.011770727 -0.008676904 0.007801994 0.023241865 0.12637271
0.18773192 0.063827984 -0.02863542 0.044747226 0.087115176 0.046263848 -0.013333996 0.21992649
0.30263063 -0.023210932 -0.349382 -0.34602562 0.28346372 0.17569251 -0.056135856 -0.16061604
0.3861512 0.16098529 -0.5782542 -0.46931583 0.038461532 -0.22411373 -0.37390032 -0.17418873
0.4290299 0.28962845 -0.3628145 -0.39879897 -0.16471457 -0.1644069 -0.22183095 -0.23629005
-0.11667183 -0.24088448 -0.38141465 -0.35546085 -0.08732433 -0.050784335 0.004547958 -0.053498104
-0.105618805 -0.028127205 -0.48493567 -0.16580367 0.053039566 -0.057811443 -0.07650087 -0.107669465
-0.2940474 -0.29078805 -0.34316784 -0.0048555615 0.15972415 0.07490377 -0.06412393 -0.08140733
-0.05469965 -0.22158156 0.024828486 0.056910418 -0.030921329 0.05309688 0.051632177 -0.0072778105
-0.026549688 0.120169416 0.17629692 0.11585378 0.03428825 0.019720348 0.20266151 0.12052283
0.023347626 -0.0147584835 -0.13904375 -0.10494507 0.0017226023 0.0786615 0.03435503 -0.052710574
-0.00069756113 -0.03741612 -0.15595397 -0.32697928 -0.24794804 -0.04961197 -0.13530636 -0.24240027
-0.3086878 -0.25513244 -0.2834189 -0.18859886 -0.19739898 -0.13866182 -0.048898634 -0.0828858
-0.18910283 -0.052584987 -0.37317136 -0.23084156 -0.037007637 0.09841694 0.09819035 -0.031451292
0.14878275 -0.34672818 -0.8067724 -0.5652805 -0.12117582 0.052935183 -0.09921767 -0.28682634
0.089950465 -0.24065362 -0.5007888 -0.50276035 -0.10839547 0.02397585 -0.036542017 0.020339325
-0.057350177 0.0070017236 -0.13155332 -0.2361857 -0.23670454 -0.07010852 -0.07460785 -0.04801183
-0.11458714 0.19772942 0.15873878 0.0711161 0.007952434 -0.114682585 -0.104701824 0.09191017

network.0.0.bias f4 [32]
00000000: 6850 d13d ef6c 3d3e b67d 633d 0f78 153c
00000010: eeec d13f fd19 013e 7363 043e 0735 1b3e
00000020: fba2 053e 065e 043e 8f1b ff3d dc19 653e
00000030: 48d5 17bc e16c 563e 5685 9c3e 01cd 6dbf
00000040: 98fe 223e ff77 69bc e546 db3d c890 633e
00000050: 1a10 023e a455 353d 3676 9dbf aa28 d8bc
00000060: 7974 4ebd 46ca ea3e 8215 bd3d f219 d03e
00000070: 6309 aabe 3a89 053e 5c4c aa3d cabb 04bf
0.102204144 0.18498586 0.05553981 0.0091228625 1.640043 0.1260757 0.12928562 0.15156947
0.13050453 0.12926492 0.12456428 0.22373146 -0.009267159 0.20939972 0.30570477 -0.92890936
0.15917432 -0.014249801 0.107068814 0.22223198 0.12701455 0.044271126 -1.23017 -0.026386578
-0.050404046 0.45857447 0.09232618 0.40644795 -0.33210286 0.13040629 0.08315346 -0.51849043

network.0.2.weight f4 [64, 32, 4, 4]
00000000: 7251 c8bd ff90 37be 2b36 1e3e c226 533d
00000010: a196 2c3e 271a 8d3e fdb6 1dbe a2f9 6cbe
00000020: abec e5be e81e 93be 84d2 d5bd 7f0f a63c
00000030: 9af2 29be 6551 a8ba 9a77 ce3d 106d 5abe
00000040: 1f0f 433e c600 3d3e b409 20be a5bb c73c
00000050: b0eb 9bbd 70c2 17bf 594d 6cbe 74b7 e9bb
00000060: d789 38bf 9844 80be 7945 5e3b 6fd1 42be
00000070: 21b5 bdbb b6ac febd 7551 743d 5a12 08be
00000080: 7ddf 6e3e a2fd cfbd ceec 2e3e 7658 0d3e
00000090: 04d1 d3be 8b90 61bd 2b5c b73d 206c c0bd
000000a0: a811 1bbe d03d 52be bc39 e5bd 02b4 ef3d
000000b0: e69d 493e 054e 85be 0dcb 033e b414 0d3e
000000c0: 32db 633e 98de 52be 26cc 17bd 42e0 7b3e
000000d0: 3e5e 003d f951 1fbe bc7f 89bd 94e0 72be
000000e0: 54f7 933d 8cb3 a03d 8c9c 7bbe efca f3bd
000000f0: 0cc2 213e 6cc0 0dbe 13ac 8bbe 5f10 923d
00000100: 5a02 083f 5d11 a83e 2033 5c3e 4c35 203f
00000110: 0404 e43e abc1 123f 0df0 5ebf 9007 1fbe
00000120: 8df6 e43e 10d6 7bbf 7376 25bf 98a5 c6bc
00000130: 6f4f 1fbf f0f2 8abe 3cf2 dc3e 2764 90be
00000140: a024 1e3e 3c75 463c e741 2abe e348 cfbd
00000150: 6be0 8fbe d19b 403e fb84 babe 571f 3b3f
00000160: 0b3a e63e 446e b33e 9cdd 89bd b3c2 93be
00000170: f640 d2be 9b97 963e 67e8 88be f2fc b2be
00000180: 7a5f 553e 8be7 e3be bc6b c53e 36aa cc3d
00000190: f062 8f3e b437 033d 0c38 3b3d 412a 5ebd
000001a0: 2cbe 83be 80e0 47bf ce28 b8be faeb 163d
000001b0: a498 f7bc 3c27 133d 10d5 4bbe 65b9 62be
000001c0: d173 1d3d eeb9 483e d036 4abe b4c8 a1bd
000001d0: a8fb 083e 33e9 babe fec6 ea3b a09a 6b3d
000001e0: e1a5 33be 5fd5 793d 94de 7e3d 1ae0 2d3e
000001f0: 9851 493e 06d1 7b3c d469 f93d cd81 f8bd
00000200: c6ae ebbe 1343 26bd 1141 ef3d 34f4 973e
00000210: b111 8dbe e86c 7bbe 1d26 34be 0c49 8dbd
00000220: c956 3a3e 933b 26be c9fd 30be b21b 1c3d
00000230: f7b6 893e d219 8abd f0a9 a9bd b297 b83d
00000240: 210c 48be cb82 5bbe a5c4 8dbe b4f7 aa3e
00000250: 6e4b 4dbe eed8 44bd 3860 37be 631e 0cbe
00000260: c3ad debe d621 f13b 9598 54be 9117 cebc
00000270: 0ebc 97be de00 b4bd 2b01 cfbd e9dc 1bbe
00000280: c6d4 40be 08b6 80be 020f ec3a 6c06 143d
00000290: 40e3 b4bd 3e75 10bf 496c edbe 59d3 e5bd
000002a0: 8a74 18bf c0c6 68be e24e 0fbe f90d 683e
000002b0: 6908 00be 0dae 243d 59b6 8c3c ed35 8e3e
000002c0: 60ab 7e3e 16a6 89bd 762e 33be 95b9 073f
000002d0: 2e64 a7be 28a9 453f e75a 19bf 35f7 3b3d
000002e0: 0c62 3e3d 7e67 06bf 60f3 a7bd 070c 6f3d
000002f0: a72d 0e3f 395b 14bf 65fa c8bc f8d9 03bf
00000300: f5d1 cb3d c686 97bd c293 a8be 2837 10be
00000310: d91b 193e f3ea 7b3c 2823 80be 89e9 69be
00000320: 7a2f 0dbe b4ab a13e c95c b53d cafa 473d
00000330: bb22 b53e cdeb 59be 19a5 41be 1634 7bbe
00000340: bf26 633e 8247 8bbe ac3b 62be d076 cebd
00000350: ccb0 31be 10df c6be 4e0d 47bd 296e 0cbe
00000360: e364 823c 25b8 8cbe 14b5 823b f7de 603c
00000370: 7775 3b3e b786 22bd acff b53e 553f 463e
00000380: 3ddd 23bc ce83 c1be 0b2c 9ebe 3ca9 4d3e
00000390: 2e48 7abe 564b 3abc cdaa a9bd 6b18 d1be
000003a0: ce0c aebe 4bbf ca3d ad79 b63e 86d5 03be
000003b0: 13f2 cbbe 8009 8ebe 3013 8f3e a430 7bbe
000003c0: b6f0 9cbe 44fb 8a3d ac3b 3abf 9f4b ba3e
000003d0: fa0c cebe 4bb1 66bf 8a70 253e a48e 8fbe
000003e0: 96fd 683d 632f b53f 8a97 543e 4dce 733e
000003f0: df63 ca3d 0eba d33d 018d f73e 5aee 88bf
-0.097811595 -0.17926405 0.15450351 0.051550634 0.16854335 0.27559015 -0.15401836 -0.23142102
-0.44907126 -0.28734517 -0.10440543 0.020271061 -0.16596451 -0.001284164 0.10081406 -0.21330667
0.19048737 0.18457326 -0.15628701 0.024381468 -0.07613313 -0.59281063 -0.23076381 -0.007132465
-0.72085327 -0.25052333 0.003391592 -0.19025205 -0.0057894145 -0.12435286 0.059647996 -0.1328825
0.23327442 -0.101557985 0.17082521 0.13803276 -0.41370404 -0.055069488 0.089531265 -0.09395623
-0.15143454 -0.20531392 -0.111926526 0.11704256 0.1968914 -0.26036087 0.12870426 0.13777429
0.22251585 -0.20592725 -0.037059925 0.24597266 0.031339876 -0.15558614 -0.067138165 -0.23718482
0.072249085 0.07846746 -0.24571437 -0.11903941 0.1579668 -0.13842934 -0.2727972 0.07132029
0.5312859 0.32825747 0.21503878 0.62581325 0.44534314 0.57326764 -0.8708504 -0.15530229
0.44719353 -0.9837351 -0.64633864 -0.024248883 -0.6223058 -0.27138472 0.4315356 -0.2820141
0.15443659 0.012112912 -0.16626702 -0.10121324 -0.28100905 0.18809439 -0.3642958 0.73094696
0.44966158 0.35045063 -0.06731722 -0.2885948 -0.41065186 0.2941254 -0.2673981 -0.34958607
0.20837203 -0.4451259 0.38558757 0.09993403 0.2800517 0.032035545 0.045707747 -0.054239515
-0.25731027 -0.78076935 -0.35968632 0.03684614 -0.030224152 0.03592609 -0.19905496 -0.22141035
0.03844053 0.19602177 -0.19747472 -0.07899609 0.13377249 -0.36506042 0.007164835 0.05752051
-0.17543747 0.060994502 0.062223986 0.16980019 0.19660032 0.015369659 0.12178388 -0.121341325
-0.4603178 -0.04059131 0.11682332 0.296785 -0.2755256 -0.24553263 -0.17592664 -0.06898698
0.18197168 -0.16233663 -0.17284311 0.03811235 0.26897404 -0.06743206 -0.08284366 0.090133086
-0.19535877 -0.21436612 -0.2768909 0.33392107 -0.20048305 -0.048058443 -0.17907798 -0.13683467
-0.43491945 0.00735877 -0.2076133 -0.025157722 -0.29635662 -0.08789228 -0.10107645 -0.1522099
-0.18831167 -0.2513888 0.0018009844 0.036138937 -0.08832407 -0.564289 -0.46371678 -0.11221952
-0.59552824 -0.22732067 -0.13994935 0.2266158 -0.12503208 0.04020505 0.017176794 0.27775517
0.24870062 -0.067211315 -0.17498192 0.5301755 -0.3269362 0.77211237 -0.5990433 0.045890052
0.046480224 -0.52501667 -0.08200717 0.05836108 0.5553841 -0.57951695 -0.02453346 -0.5150447
0.099521555 -0.07398753 -0.3292523 -0.1408354 0.1495203 0.0153758405 -0.25026822 -0.22842993
-0.13787642 0.31576312 0.08855588 0.048823155 0.3537806 -0.21281357 -0.18910636 -0.24531588
0.22182749 -0.27202994 -0.22093076 -0.100812554 -0.17352599 -0.38842058 -0.048596673 -0.13713898
0.015917247 -0.2748424 0.0039888714 0.013725034 0.18306528 -0.039679255 0.35546625 0.19360097
-0.010001478 -0.37795871 -0.30892977 0.20084089 -0.24441597 -0.011370501 -0.08284531 -0.40838942
-0.33994144 0.098997675 0.35639706 -0.12874421 -0.39833125 -0.27741623 0.27944326 -0.24530274
-0.30652398 0.06786206 -0.727473 0.3638582 -0.40244275 -0.9011428 0.16156211 -0.28038514
0.056882463 1.4155086 0.20760933 0.23809166 0.0988233 0.103382215 0.48349765 -1.0697739

network.0.2.bias f4 [64]
00000000: eb74 55c0 b478 36bf cfc6 1ac0 c419 eabf
00000010: 53f5 c23f 493c 5bbf 9e4c 6ec0 6e03 1ac0
00000020: bf8a 6ebf 5b1b 3dc0 737f 8b3d 09cd 93bf
00000030: 8b66 3bc0 bf69 22c0 a802 efbf 78dc 3fbf
00000040: cb9d 79c0 1c06 2fbf d83f 99bf 04ff 8abf
00000050: f91a 01c0 2078 91bf a56d f2bf b084 293f
00000060: 9228 29c0 d3f6 02c0 9250 c93f 1582 9ec0
00000070: 7667 32bf f790 f4bf 8de2 91c0 9e3e bfbd
00000080: 9aa9 3fbf 4c85 15c0 c113 6abf 2434 23c0
00000090: db17 d2bf c198 58bf 8b51 afbe f5b3 e5bf
000000a0: 2245 8bbf 1057 d4bf 5289 3cbf 65b9 b2bf
000000b0: 447a eabe 9a32 67c0 54de 09c0 bced c3be
000000c0: c537 6ac0 ebbc 10c0 ce62 e2bf 30d8 2ec0
000000d0: 0817 943f 0359 38c0 2de6 08c0 b2fb 83bf
000000e0: 2a02 14c0 f238 1cc0 c4ae e2bf 9c1c 8dbf
000000f0: e93b 1abf c3f9 2dc0 8c83 27c0 2888 d9bf
-3.335261 -0.7127793 -2.4183843 -1.8289113 1.5231117 -0.8563886 -3.7234263 -2.4064593
-0.9318046 -2.9547946 0.068114184 -1.1546947 -2.9281337 -2.5377042 -1.8672686 -0.74945784
-3.900256 -0.683687 -1.1972609 -1.0859075 -2.0172713 -1.1364784 -1.8939711 0.6621809
-2.6431012 -2.046315 1.5727713 -4.953379 -0.6968912 -1.910674 -4.558905 -0.09338115
-0.74868166 -2.3362608 -0.9143639 -2.5500574 -1.641353 -0.84608084 -0.342419 -1.7945544
-1.0880473 -1.6589069 -0.73647034 -1.3962828 -0.45796406 -3.6124635 -2.1541948 -0.38267314
-3.659654 -2.2615306 -1.7686403 -2.731945 1.1569529 -2.8804328 -2.1390488 -1.0311186
-2.312632 -2.4409757 -1.7709584 -1.1024356 -0.60247666 -2.7183692 -2.617404 -1.6994677

network.0.4.weight f4 [64, 64, 3, 3]
00000000: c74d abbe e09f bc3f 52d2 c6bd 7682 44bf
00000010: 5ded 283f 08bf 2fbf 3a57 393f 9877 72c0
00000020: e01d b13f 9e3f 8cbf 64f1 8f3c a7aa 5abf
00000030: bd14 63be c9ad f73e bfad e9be cb5d bf3e
00000040: 5963 3fbf dc49 56be fa7a ddbe 9b6d 2fc0
00000050: 80ce 9d3f 6caf 68bd c088 7b3e aee3 e8be
00000060: f4ce 7cbf c7d6 bcbf 270d 21be 85cd d3bf
00000070: 8bde dd3e 3ffd e1be ca83 16bf 4798 8fbf
00000080: 0d35 403f 5c5f 923e 0e5e 1fbf 2cdb 1ebc
00000090: 1753 e73b cc53 79bf 85af 5e3f 288f 6c3d
000000a0: fa6b 34bf 3cef fabf 9fd5 873e 53dd 84bd
000000b0: c5bb 983e 46cd e0bf 8820 e0be 2a10 403f
000000c0: d036 363e 02cc 8b3f 3216 a13d 3772 5f3d
000000d0: d3ee 003f 8b88 143d 05bb 9d3e 0aa4 c6be
000000e0: ca2d d4be 29ee 0d3f 09fc 0a3f bab7 3e3f
000000f0: 9f44 ebbe 5919 a4be 15b4 013f d520 e43c
00000100: f604 f2be 8f0d 713f 6cfb 14bf bdcf d33e
00000110: c8d8 263e 345e 1d3e c17e 2ac0 c0ae e1bf
00000120: 3fdd b3bf 75c7 0d3e b905 b1be f36f 0ebf
00000130: 71d3 6cbf a7e6 febe 236d 023f 6b21 ab3e
00000140: a8e5 8d3e 5a3d 683c 9aac db3d 09ac 493f
00000150: ad76 5fbf 45fa 4cbf 7c84 b2bf bff4 0bbe
00000160: ab97 883f 3164 3b3f 70b7 d53e 0bd9 a63e
00000170: 7243 213e 80bd 72bf d3ae 163e 6b34 a73e
00000180: 51c3 553f 46ba 673d 1cee 0d3f 53f3 cbbe
00000190: 751a 8c3f 304f 70bf fb3c 31bf e3f7 103f
000001a0: baa0 6ebf 87a8 d6bf e241 27c0 1cad d5bd
000001b0: 1000 a3bc abec 3cbf 41ba fbbc c9a4 06bf
000001c0: 9401 883f 057b ea3e d217 f93e 13a6 8abf
000001d0: 2a2e 05c0 16b8 3abf 8dbe 3c3e d1f7 7fbe
000001e0: 0a17 11be 2f66 6a3d c518 993f f14f a43f
000001f0: d8c7 433f bd7a 2ebe 3ddd 98bd ff30 cbbe
00000200: a463 b1be 4410 1b3f c9c4 043e 657e ebbe
00000210: 127b 103f a098 7cc0 858c 483f f485 a8be
00000220: a065 9a3e b903 3dbe 3f41 723f e96f c3be
00000230: 6aac 74be 2861 9cbf 8ae1 0d3f 84fc 75bf
00000240: 7399 78bd 40de babe b9ab 8a3f 2a18 ea3d
00000250: 44b8 df3d 3c1b e53e 61d8 f83f 9201 8cbe
00000260: 398f 2640 3f22 a7be ecc4 e13e 2861 2a3f
00000270: 464b e13e 6bf6 263f 8a40 00c0 7c91 cabf
00000280: df4d fd3d 1f2d d93e 668d bbbe b84a 3b3e
00000290: 77fc e03d badc 3c3f 6861 21bf 2f27 b4be
000002a0: 8513 a73e 8508 6e3f b06c 51be fac9 10bf
000002b0: 771f df3c 4447 1cbe 29cb 2f3f 7c4f 30bf
000002c0: aae0 f2be f62e 6b3e cd49 b23f a3c0 8a3f
000002d0: 6055 7f3e 09d4 633e 1c75 55be 8ae1 bfbe
000002e0: fc55 a4be 8b23 24bd ad67 e63f 37d4 da3e
000002f0: 5e50 30c0 f759 c03d 202f 98bf 7c3f 53bf
00000300: 8534 a43f 9251 aabf 957d 0fbf 9715 4e3f
00000310: 84a1 20c0 d0f3 d93d e18b 20bf 4284 90be
00000320: ec9d 83bf 748a a8bd 3b8e abbf 6607 26be
00000330: ca1d 18be 1807 35bf a885 3b3f f5de 963d
00000340: cd55 49bf 9db4 0bbe 7e50 0a3f ea20 bd3e
00000350: 16a4 0cbf 8d6a 92be 3124 9fbf 661e 2f3f
00000360: 0321 313f 0e3c ad3e 482a 96bf 9f23 78bf
00000370: 7661 693f 1352 bb3d 1fa2 09bf bebe 8a3f
00000380: 3be4 893f 3fb1 ae3e ef59 643e b4a8 80bf
00000390: 1d92 5240 96a3 9fbf f111 39c0 294b 023f
000003a0: a6f8 fbbd 9023 03bf 3140 e7be 927d 39bf
000003b0: 52f0 cdbc fe65 873e 6504 29bf 63a7 80be
000003c0: 76ef 803f 4cc1 33bf 05a0 bf3e d36d 96bd
000003d0: ee7f 613f 0ab6 c03d b872 8abf ff4e 33bf
000003e0: 0a54 42c0 c9a7 96bf a6a7 cabf 6db8 0e3f
000003f0: 44c7 2fbc 46fd 7fbf 8b96 373f 67e9 b6bf
-0.33457777 1.473629 -0.09708084 -0.7676157 0.6598719 -0.68650866 0.7239872 -3.7885494
1.3837242 -1.0956914 0.017571159 -0.85416645 -0.2217588 0.48374775 -0.4564037 0.37376246
-0.7476097 -0.20926613 -0.43257886 -2.7410648 1.2328644 -0.05680792 0.24563885 -0.45486206
-0.98753285 -1.4753045 -0.15727673 -1.6547095 0.4333385 -0.44138524 -0.58794844 -1.1218346
0.7508095 0.28588378 -0.6225289 -0.009695809 0.0070594656 -0.9739349 0.8698657 0.057753712
-0.7047726 -1.9604259 0.26530167 -0.06487527 0.29830757 -1.7562644 -0.4377482 0.75024664
0.17794347 1.0921633 0.078655615 0.054552283 0.50364417 0.03626303 0.30806747 -0.38797027
-0.41441184 0.5544153 0.54290825 0.74499094 -0.4595079 -0.3205059 0.5066541 0.027847687
-0.4726941 0.94161314 -0.5819614 0.4136943 0.16293633 0.15367967 -2.6639864 -1.7631454
-1.4051894 0.13845618 -0.3457468 -0.5563957 -0.92510134 -0.4978535 0.5094778 0.33423933
0.27714276 0.014174784 0.107262805 0.7877813 -0.8729046 -0.8006938 -1.3946681 -0.13667582
1.0671285 0.73199755 0.41741514 0.32587466 0.15748385 -0.94820404 0.14715128 0.3265718
0.83501154 0.05657413 0.5544145 -0.3983408 1.0945574 -0.9387083 -0.69233674 0.56628245
-0.93214 -1.677018 -2.6133962 -0.104334086 -0.01989749 -0.73798627 -0.030728461 -0.5259519
1.0625482 0.4579698 0.48650986 -1.0831932 -2.0809426 -0.7293714 0.18432064 -0.24996878
-0.14168945 0.057226356 1.1960684 1.2836896 0.7647681 -0.17039008 -0.07464073 -0.3968582
-0.34646332 0.60571694 0.12965693 -0.4599487 0.5643779 -3.9468155 0.78339416 -0.32914698
0.3015566 -0.18458451 0.9463081 -0.38171318 -0.23893896 -1.221715 0.5542227 -0.96088433
-0.060693216 -0.36497688 1.0833656 0.1143039 0.10923818 0.4474734 1.9441034 -0.27344948
2.6024916 -0.32643315 0.44095552 0.665545 0.44002742 0.65219754 -2.0039392 -1.5825648
0.12368368 0.42417237 -0.36631316 0.18290222 0.10985654 0.737743 -0.63039255 -0.35186145
0.3263208 0.9298175 -0.20451617 -0.5655819 0.027236683 -0.1526156 0.6866937 -0.68871284
-0.4743703 0.22967133 1.3928772 1.0840038 0.24934912 0.22248854 -0.20845455 -0.3747676
-0.3209685 -0.04007296 1.8000389 0.42740032 -2.7549052 0.093921594 -1.1889381 -0.82518744
1.2828528 -1.3306143 -0.56051 0.80501693 -2.5098581 0.10642207 -0.6271344 -0.28225905
-1.0282569 -0.08229533 -1.340278 -0.1621376 -0.14855114 -0.7071395 0.7325082 0.073667444
-0.78646547 -0.13643117 0.5402907 0.36939174 -0.54937875 -0.28596917 -1.243292 0.6840576
0.69190997 0.3383488 -1.1731653 -0.96929353 0.9116434 0.09146514 -0.53763 1.083946
1.0772775 0.34119603 0.22299932 -1.0051484 3.290168 -1.2471797 -2.89172 0.50895935
-0.12303285 -0.5122614 -0.45166162 -0.7245723 -0.025139008 0.26445 -0.6602233 -0.25127706
1.0073078 -0.7021682 0.37426773 -0.07345166 0.8808583 0.09409721 -1.0816259 -0.70042413
-3.0363793 -1.1769954 -1.5832412 0.5575016 -0.010728661 -0.9999584 0.71714085 -1.4289979

network.0.4.bias f4 [64]
00000000: 914c 903e 4144 96be 5a90 e83b 048d 73bd
00000010: 6da8 173e 9605 d7be e596 9ebe cbf7 1dbd
00000020: 4fc4 aebd 96da a83e 4ecb 723d 6bf2 0dbe
00000030: 64ac 32be 8018 50bd e04f 75be 9f10 ae40
00000040: 7d57 39bf b344 e2bd 1fef 0cbf 0a5d 80bd
00000050: cbf8 88bf 0ccf 0cbd e226 d13f a2f9 96be
00000060: 65cf d03e dcc1 80bd f783 e5be eaf9 8ebf
00000070: 39b6 f5bc d89a c93d bacc b3be c24b 9abd
00000080: 4804 6140 f186 23c0 7882 8cba 8884 fe3f
00000090: 22e4 80bf 8aeb 90bd 4f29 95ba a7d2 ad3f
000000a0: e59a 03bf ce60 bdbc bec0 97be 33df 5abf
000000b0: 7346 4b3e f676 273e f722 933f f9a2 37be
000000c0: 5258 0bbe 501b 613f e3fe 07bd 7b74 1cbf
000000d0: 286d d93f 3492 aabc 4cdf d23f 4b8e 973e
000000e0: 6cc9 4c3c c03f ab3f d7b8 2740 4e84 1bbd
000000f0: 497e 0140 27af 12bf 8984 bb3d cda9 153e
0.28183416 -0.2934895 0.007097286 -0.059460655 0.14810343 -0.4199645 -0.30974498 -0.038566392
-0.08533537 0.32979268 0.059275918 -0.13862006 -0.17448574 -0.050804615 -0.23956251 5.439529
-0.7239912 -0.110482596 -0.5505237 -0.06267746 -1.0700926 -0.034377143 1.6339991 -0.2948733
0.4078323 -0.06286976 -0.44827244 -1.1170018 -0.029994117 0.09843987 -0.3511713 -0.07533981
3.5158863 -2.5551112 -0.0010720035 1.9884195 -1.0069621 -0.070761755 -0.0011380109 1.3579911
-0.51408225 -0.02311745 -0.29639238 -0.85496825 0.19851093 0.16353974 1.1495045 -0.17933263
-0.1360791 0.879323 -0.033202063 -0.61115235 1.6986437 -0.020821668 1.6474395 0.29600748
0.012499195 1.337883 2.6206567 -0.037967972 2.0233328 -0.5729851 0.091561384 0.14615555
