agent_model_latest.pth (torch, 472075 bytes, 16 tensors)

conv_layers.0.weight f4 [32, 5, 8, 8]
-0.24639414 -0.35235995 0.18758072 0.24725966 0.09096754 0.064267576 0.021288136 -0.051252097
-0.13695443 -0.16582091 0.06448892 0.3177273 0.3453412 0.11869828 0.007916853 -0.32000002
-0.09583927 -0.049378265 0.027164895 0.18024294 0.19917299 0.20993614 0.24720289 -0.11738932
-0.20606673 0.16622338 0.020908292 -0.06009818 0.028489782 0.2024202 0.21644469 -0.08769046
0.08749692 0.15802735 -0.04181776 0.023721032 -0.169397 0.1811957 0.3085911 -0.09613791
-0.040573154 0.041708227 -0.015728913 0.020527964 0.009157013 0.2243392 0.32399377 -0.047859542
-0.1709225 0.0061063226 -0.020507868 -0.010283417 0.07895339 0.11268616 0.13589075 0.019653132
0.011603402 0.05719081 0.09769416 -0.031222526 0.12217351 0.044813797 0.03576079 0.08758517
-0.2513441 -0.090481415 -0.12225424 -0.20668706 0.15314057 0.10070215 0.033020947 -0.40700862
-0.22422597 0.18154016 0.014674256 -0.16316178 -0.11272393 -0.1560912 -0.068086356 -0.4984178
-0.13880141 0.099546544 -0.20807388 -0.12412538 -0.14823453 -0.29780367 -0.21864977 -0.23099788
-0.24287511 -0.029723488 -0.23966622 -0.021589097 0.011163811 -0.129205 -0.20000204 -0.22622994
-0.03954925 0.057885535 0.04893943 0.0722892 0.29287127 0.14610466 0.22063291 0.09354408
-0.19589637 -0.031612497 0.09598739 0.062343452 0.30769622 0.19319554 0.2399429 0.13233753
-0.024150532 0.023078002 0.013866387 -0.021988006 -0.048932068 0.012498981 0.020767832 0.1522991
0.20918187 0.07761973 -0.037214924 0.01245361 0.08028459 0.10884514 -0.010541605 0.20908922
0.20944038 -0.027761405 -0.28175354 -0.302902 0.2786598 0.11492621 -0.06435229 -0.17194185
0.25665697 0.057937898 -0.56025416 -0.4512883 0.079995856 -0.21044542 -0.3147028 -0.1761796
0.34310934 0.27149856 -0.29001266 -0.4535105 -0.20489904 -0.11718389 -0.18912417 -0.21585841
-0.124332786 -0.25511548 -0.362737 -0.40400368 -0.070460334 0.0050694165 -0.04687937 -0.07243038
-0.16264234 -0.05912925 -0.42823288 -0.210912 0.13700964 0.04911695 -0.07747246 -0.14538118
-0.30478805 -0.2911186 -0.33742505 -0.041556243 0.18508668 0.15945475 -0.0932071 -0.101764
0.001379766 -0.18105559 -0.028947541 -0.020021737 -0.026153864 0.17888598 0.056113087 0.01658216
-0.00904164 0.14306082 0.18974508 0.1452499 0.068552546 0.091409296 0.19278519 0.13115391
-0.0029281264 -0.023984037 -0.038615324 -0.07803734 0.0031032143 0.08975499 -0.0068534156 -0.08067175
-0.069216624 -0.093705416 -0.16159452 -0.3146907 -0.15596761 0.023631241 -0.120635144 -0.2067678
-0.3170891 -0.24100512 -0.33207113 -0.08783419 -0.0765067 -0.06983991 -0.07924405 -0.088114895
-0.10601275 -0.085241675 -0.40780827 -0.1666318 -0.013841894 0.058642104 0.037909277 -0.023838788
0.09246204 -0.45620093 -0.6895376 -0.4490309 -0.058403887 0.062878035 -0.06022958 -0.23527546
-0.013456516 -0.25279674 -0.4809288 -0.41385257 -0.0012902779 0.047260214 -0.014454746 -0.033356603
-0.005734472 0.016729739 -0.094763204 -0.2017479 -0.11412707 -0.0031728405 -0.11594816 -0.053074807
-0.045530006 0.22984655 0.17865938 0.048546493 0.069762096 -0.035227515 -0.061083794 0.09720791
00000000: bf4e 7cbe 8668 b4be 2915 403e a331 7d3e
00000010: 314d ba3d b89e 833d 7564 ae3c b8ed 51bd
00000020: c83d 0cbe f5cc 29be c412 843d 27ad a23e
00000030: 90d0 b03e 1518 f33d b0b5 013c 0bd7 a3be
00000040: 6147 c4bd dd40 4abd ea88 de3c 9b91 383e
00000050: 01f4 4b3e 80f9 563e c122 7d3e d069 f0bd
00000060: 2803 53be 7636 2a3e de47 ab3c 8229 76bd
00000070: 6763 e93c 3e47 4f3e ada3 5d3e 0e97 b3bd
00000080: 9631 b33d ecd1 213e 1949 2bbd 9c52 c23c
00000090: 6876 2dbe 5e8b 393e a7ff 9d3e f4e3 c4bd
000000a0: 0930 26bd 3fd6 2a3d ecd9 80bc 432a a83c
000000b0: 4c07 163c 2db9 653e 83e2 a53e 5e08 44bd
000000c0: 4f06 2fbe 8c17 c83b 1e00 a8bc c77b 28bc
000000d0: 51b2 a13d 00c8 e63d f226 0b3e 9bff a03c
000000e0: 321c 3e3c e940 6a3d e013 c83d 62c6 ffbc
000000f0: 1b36 fa3d ac8e 373d e879 123d db5f b33d
00000100: 2db0 80be 524e b9bd 6e60 fabd c6a5 53be
00000110: e2d0 1c3e ee3c ce3d f940 073d 6f63 d0be
00000120: 7e9b 65be aae5 393e 4a6c 703c e213 27be
00000130: cedb e6bd 5fd6 1fbe dc70 8bbd 9e30 ffbe
00000140: f521 0ebe 0fdf cb3d 5211 55be 7235 febd
00000150: cbca 17be b979 98be bae5 5fbe b58a 6cbe
00000160: 41b4 78be ac7e f3bc 106b 75be 9edb b0bc
00000170: 6be8 363c 514e 04be 56cd 4cbe d2a8 67be
00000180: 65fe 21bd 6219 6d3d b674 483d 5c0c 943d
00000190: 39f3 953e 769c 153e 98ed 613e 0a94 bf3d
000001a0: 0f99 48be 1b7c 01bd 0995 c43d d95b 7f3d
000001b0: 5c8a 9d3e 0dd5 453e 97b3 753e 7d83 073e
000001c0: 56d7 c5bc 140e bd3c d82f 633c 3120 b4bc
000001d0: fe6c 48bd 87c8 4c3c 4d21 aa3c 4cf4 1b3e
000001e0: c633 563e 18f7 9e3d ad6e 18bd 3a0a 4c3c
000001f0: 3f6c a43d 33ea de3d b2b6 2cbc 7c1b 563e
00000200: 8a77 563e e36b e3bc 0042 90be f915 9bbe
00000210: 7fac 8e3e 6f5e eb3d 22cb 83bd 8611 30be
00000220: 8b68 833e 4a50 6d3d d16c 0fbf 430f e7be
00000230: ded4 a33d 017f 57be ba20 a1be 6d68 34be
00000240: 07ac af3e dc01 8b3e 8a7c 94be 8732 e8be
00000250: 0ed1 51be 1bfe efbd c4a9 41be fd09 5dbe
00000260: 30a2 febd 7f9e 82be aab8 b9be 92d9 cebe
00000270: 824d 90bd 591d a63b 9504 40bd 6156 94bd
00000280: b78b 26be 8331 72bd 5741 dbbe 51f9 57be
00000290: 414c 0c3e db2e 493d e2a9 9ebd cede 14be
000002a0: 2e0d 9cbe 7f0d 95be fac2 acbe e136 2abd
000002b0: 5d87 3d3e 1b48 233e 5de3 bebd a569 d0bd
000002c0: 44d9 b43a a366 39be 6523 edbc a004 a4bc
000002d0: a140 d6bc e32d 373e d6d6 653d 4fd7 873c
000002e0: 6323 14bc 897e 123e 894c 423e 64bc 143e
000002f0: 4765 8c3d cc34 bb3d 7b69 453e 364d 063e
00000300: cfe5 3fbb 2c7a c4bc 1a2b 1ebd 0ad2 9fbd
00000310: 4c5f 4b3b 77d1 b73d 9e92 e0bb 3b37 a5bd
00000320: 72c1 8dbd a0e8 bfbd 0979 25be 241f a1be
00000330: f9b5 1fbe 4e96 c13c 8f0f f7bd f0ba 53be
00000340: 8159 a2be 0cca 76be 3a05 aabe 69e2 b3bd
00000350: 8baf 9cbd 3a08 8fbd b44a a2bd 9575 b4bd
00000360: 361d d9bd 3093 aebd 3fcc d0be 87a1 2abe
00000370: 1dc9 62bc b432 703d c246 1b3d 9049 c3bc
00000380: bd5c bd3d 2b93 e9be 8985 30bf 61e7 e5be
00000390: ea38 6fbd 33c6 803d 4bb3 76bd 0dec 70be
000003a0: b878 5cbc 936e 81be 4d3c f6be 7ce4 d3be
000003b0: 8b1e a9ba ed93 413d 99d3 6cbc efa0 08bd
000003c0: 3de8 bbbb ce0c 893c 3613 c2bd 0097 4ebe
000003d0: 74bb e9bd 6eef 4fbb 3b76 edbd f864 59bd
000003e0: ac7d 3abd e55c 6b3e 7cf2 363e b0d8 463d
000003f0: 6edf 8e3d ba4a 10bd 0033 7abd f114 c73d

conv_layers.0.bias f4 [32]
0.013250865 0.17410614 0.10114208 -0.06079562 1.64837 0.12731478 0.05514513 0.2304972
0.05957464 0.23310582 0.13822503 0.12876785 0.1053829 0.098815516 0.2261544 -0.70919126
0.072605774 -0.06588511 0.14203756 0.27406234 0.06844462 0.06171908 -1.271306 -0.052143272
-0.007320426 0.40328377 0.13214439 0.23075514 -0.40351835 0.06282733 0.033619888 -0.4449444
00000000: 281a 593c e148 323e 9423 cf3d d404 79bd
00000010: cafd d23f ce5e 023e dcdf 613d 7507 6c3e
00000020: 8a04 743d 4bb3 6e3e dd8a 0d3e b8db 033e
00000030: fdd2 d73d ca5f ca3d 0595 673e 8f8d 35bf
00000040: 56b2 943d c6ee 86bd 4b72 113e e651 8c3e
00000050: b12c 8c3d 25cd 7c3d 28ba a2bf 2f94 55bd
00000060: 2fe0 efbb 367b ce3e dc50 073e 134b 6c3e
00000070: f599 cebe 9dab 803d 02b5 093d c1cf e3be

conv_layers.2.weight f4 [64, 32, 4, 4]
-0.089438766 -0.23164931 0.1725916 -0.019773854 0.11889584 0.3022605 -0.14314143 -0.29297495
-0.40381372 -0.31115565 -0.23132353 0.0700738 -0.007515372 -0.007963322 0.11481668 -0.13207926
0.18111399 0.101731256 -0.08169957 0.07639215 -0.0033095193 -0.5190072 -0.17461362 0.10511921
-0.38407874 -0.2095705 -0.09783491 -0.30219772 0.102763094 -0.15420161 0.12706411 -0.09945135
0.25673768 -0.023000062 0.13295163 0.19154489 -0.27408418 0.037458032 0.19381984 -0.16759455
0.0040700873 -0.1824884 -0.13701838 0.22925556 0.12613244 -0.05794985 0.23412928 0.15895729
0.22873197 -0.12118411 -0.013740388 0.17022222 0.023511512 -0.14596304 -0.08605348 -0.17298244
0.18551451 0.107538074 -0.25776014 -0.14640407 0.05990895 -0.03841248 -0.30625182 0.04645837
0.27836427 0.19721837 0.10033262 0.47131345 0.115034334 0.29364207 -0.6751003 -0.5015833
0.77492166 -0.84601516 -0.22009583 0.29902875 0.10804105 -0.17590944 0.372997 -0.6501361
-0.16628739 0.18755098 -0.534894 0.12888479 0.18220896 0.30796894 0.20197582 -0.04540553
0.30391246 0.21996959 -0.074908786 0.10192782 -0.2547371 -0.13377896 0.06315679 -0.019223677
0.29705068 -0.36233506 0.40331727 0.17966442 0.31816745 0.085711226 0.03909894 -0.05029825
-0.1661827 -0.6971497 -0.35141137 0.07995205 -0.027033785 0.06722766 -0.09553147 -0.16363083
-0.019239465 0.10831533 -0.21630168 -0.022204923 0.17411183 -0.10602539 0.12064034 0.06622605
-0.14708139 0.10532292 0.021481773 0.096451186 0.14832824 -0.10414081 -0.04641621 -0.14525057
-0.44206086 -0.0030116322 0.18680555 0.24629253 -0.09049106 -0.19784611 -0.106845275 0.062350437
0.22062336 -0.156139 -0.24741419 0.004850759 0.26652327 0.17705102 -0.100633964 -0.05033284
-0.15870818 -0.15289588 -0.21058717 0.45777532 -0.06813923 0.0075007584 -0.0477986 -0.056465156
-0.25446138 0.10637107 -0.13205916 0.023188662 -0.26416975 -0.04798762 -0.02456778 -0.119248666
-0.18463527 -0.21639918 0.045797396 0.098688774 -0.065302044 -0.42200705 -0.3865066 -0.019937998
-0.47438368 -0.15106398 -0.18834844 0.24452314 -0.05819084 0.0659407 0.06532195 0.24421397
0.27417064 -0.044275172 -0.12489267 0.5489657 -0.27829024 0.8005134 -0.53974766 0.036216553
0.07686673 -0.47100374 0.045374148 0.02316782 0.5070205 -0.5815224 0.24803457 -0.5446143
0.08621549 -0.05043082 -0.18005143 -0.0700939 0.1579933 0.07110875 -0.1539402 -0.19645491
-0.12622221 0.33732903 0.11379741 -0.017803064 0.4049067 -0.3282858 -0.10698651 -0.19967754
0.23256476 -0.20932746 -0.18780264 -0.04533864 -0.15120377 -0.18935747 -0.061374 -0.08663502
0.09678768 -0.13024865 -0.031439885 -0.05412849 0.0946889 -0.07160562 0.40510148 0.24491076
0.040090557 -0.3109221 -0.2763991 0.25196648 -0.24273463 -0.10007187 -0.11193278 -0.41508263
-0.25251302 0.21475868 0.20696057 0.010174025 -0.25251627 -0.1883667 0.2398673 -0.13123468
-0.45606285 -0.059277713 -0.84798354 0.39270228 -0.3078057 -0.88109964 0.30271664 -0.3360021
0.13645904 1.4131005 0.16258961 0.21448043 0.18820414 -0.13331392 0.7276682 -1.369145
00000000: ac2b b7bd 7a35 6dbe dabb 303e c7fc a1bc
00000010: aa7f f33d e3c1 9a3e ab93 12be d000 96be
00000020: acc0 cebe cb4f 9fbe 13e0 6cbe da82 8f3d
00000030: 8243 f6bb 9878 02bc 0225 eb3d c93f 07be
00000040: f275 393e 7a58 d03d 1b52 a7bd 7d73 9c3d
00000050: 85e4 58bb a8dd 04bf eacd 32be be48 d73d
00000060: f8a5 c4be a699 56be ab5d c8bd a9b9 9abe
00000070: 7575 d23d 07e7 1dbe 181d 023e 26ad cbbd
00000080: 1f73 833e a06a bcbc 7924 083e 5824 443e
00000090: c354 8cbe 986d 193d b578 463e e89d 2bbe
000000a0: 5e5e 853b 3dde 3abe 8c4e 0cbe f8c1 6a3e
000000b0: dd28 013e d25c 6dbd 96bf 6f3e b3c5 223e
000000c0: b738 6a3e 602f f8bd 5d1f 61bc bc4e 2e3e
000000d0: 379b c03c 5677 15be cf3c b0bd 4f22 31be
000000e0: 84f7 3d3e ec3c dc3d 23f9 83be f3ea 15be
000000f0: 1663 753d 6856 1dbd 0acd 9cbe 224b 3e3d
00000100: c385 8e3e 9df3 493e 307b cd3d ff4f f13e
00000110: 1f97 eb3d 4158 963e 60d3 2cbf c367 00bf
00000120: 4461 463f 7394 58bf cd60 61be 4c1a 993e
00000130: a044 dd3d 9b21 34be 76f9 be3e 526f 26bf
00000140: 3e47 2abe 5d0d 403e d0ee 08bf 60fa 033e
00000150: fc94 3a3e 1bae 9d3e c0d2 4e3e 26fb 39bd
00000160: 6a9a 9b3e b53f 613e c769 99bd 88bf d03d
00000170: e76c 82be 5afd 08be 5958 813d f97a 9dbc
00000180: 0717 983e fb83 b9be 9a7f ce3e f3f9 373e
00000190: d8e6 a23e 5e89 af3d 3626 203d 8a05 4ebd
000001a0: cc2b 2abe 6778 32bf 31ec b3be e6bd a33d
000001b0: f575 ddbc a8ae 893d 01a6 c3bd d78e 27be
000001c0: 159c 9dbc 6ed4 dd3d 307e 5dbe 19e7 b5bc
000001d0: 5f4a 323e d723 d9bd 4812 f73d 86a1 873d
000001e0: 819c 16be 8bb3 d73d 8bfa af3c 3388 c53d
000001f0: 5ce3 173e c747 d5bd ec1e 3ebd 91bc 14be
00000200: cd55 e2be ce5e 45bb f449 3f3e 1c34 7c3e
00000210: 6053 b9bd 2c98 4abe b2d1 dabd 2c63 7f3d
00000220: 17eb 613e e7e2 1fbe 255a 7dbe 1ef3 9e3b
00000230: bd75 883e dd4c 353e 2e19 cebd cf29 4ebd
00000240: 6684 22be bd90 1cbe 2aa4 57be 8761 ea3e
00000250: 958c 8bbd ecc8 f53b 77c8 43bd 0248 67bd
00000260: c348 82be 13d9 d93d 843a 07be 26f6 bd3c
00000270: 4241 87be ab8e 44bd 5e42 c9bc a538 f4bd
00000280: 0711 3dbe bf97 5dbe 0d96 3b3d 571d ca3d
00000290: 14bd 85bd 4f11 d8be 31e4 c5be 0355 a3bc
000002a0: 6be2 f2be 84b0 1abe 6ade 40be 4664 7a3e
000002b0: 8559 6ebd eb0b 873d 84c7 853d 3a13 7a3e
000002c0: 1860 8c3e e259 35bd bac7 ffbd 0489 0c3f
000002d0: 0f7c 8ebe 72ee 4c3f e72c 0abf cf57 143d
000002e0: 4e6c 9d3d 6727 f1be 3eda 393d 71ca bd3c
000002f0: 18cc 013f a7de 14bf c6fc 7d3e d86b 0bbf
00000300: bf91 b03d 8c90 4ebd 675f 38be 648d 8fbd
00000310: ffc8 213e 77a1 913d 80a2 1dbe 7a2b 49be
00000320: 6540 01be 64b6 ac3e 9e0e e93d bbd7 91bc
00000330: ee4f cf3e 1415 a8be be1b dbbd 4578 4cbe
00000340: 7525 6e3e f059 56be 564f 40be 03b5 39bd
00000350: 29d5 1abe ede6 41be 4e63 7bbd b46d b1bd
00000360: 9f38 c63d e75f 05be 1cc7 00bd d6b5 5dbd
00000370: 41ec c13d f8a5 92bd 7669 cf3e e3c9 7a3e
00000380: ff35 243d 2e31 9fbe 2f84 8dbe c001 813e
00000390: 6d8f 78be 7bf2 ccbd 033d e5bd b685 d4be
000003a0: 6349 81be b3e9 5b3e 79ed 533e f4b0 263c
000003b0: d049 81be 33e3 40be c69f 753e 6262 06be
000003c0: 1281 e9be 30cd 72bd 7315 59bf 4610 c93e
000003d0: b598 9dbe bf8f 61bf adfd 9a3e 7808 acbe
000003e0: ebbb 0b3e 7ae0 b43f e47d 263e c2a0 5b3e
000003f0: 96b8 403e 7283 08be 7748 3a3f 2540 afbf

conv_layers.2.bias f4 [64]
-2.9277358 -0.7036675 -2.0162852 -1.6141481 1.4851832 -0.7231969 -3.6829107 -1.7649273
-0.743351 -3.3500805 0.04165203 -0.91951406 -2.9920113 -2.0706503 -1.2257668 -0.8810144
-3.3558803 -0.83214813 -0.9676653 -1.0687695 -1.6981611 -1.330846 -1.5773901 0.7164892
-2.4947956 -1.5110925 1.3134137 -4.4324913 -0.59647894 -1.8147519 -3.9594183 0.1679175
-0.4523199 -2.1507027 -1.2358217 -1.9709218 -1.1672726 -0.41944954 -0.5604657 -1.8177017
-0.6763352 -1.2571033 -1.1591443 -1.237314 -0.6900139 -3.5015697 -1.8369459 -0.5538773
-3.018659 -1.7586342 -1.0486945 -1.9651637 0.8940928 -2.6587677 -1.7395973 -0.882436
-1.846232 -1.934078 -1.6104519 -1.212917 -0.60477835 -2.313933 -1.8049655 -1.4499012
00000000: 0660 3bc0 8e23 34bf d10a 01c0 689c cebf
00000010: 7c1a be3f 6f23 39bf cfb4 6bc0 23e9 e1bf
00000020: 404c 3ebf b867 56c0 529b 2a3d 4665 6bbf
00000030: 1d7d 3fc0 8985 04c0 ede5 9cbf 298a 61bf
00000040: bec6 56c0 a907 55bf eab8 77bf 70cd 88bf
00000050: 585d d9bf 2959 aabf ebe7 c9bf d66b 373f
00000060: bbaa 1fc0 7b6b c1bf f11d a83f f8d6 8dc0
00000070: d8b2 18bf ca49 e8bf 1c67 7dc0 91f2 2b3e
00000080: 7996 e7be 1da5 09c0 682f 9ebf 2a47 fcbf
00000090: 3069 95bf 17c2 d6be ae7a 0fbf 73aa e8bf
000000a0: 4e24 2dbf c3e8 a0bf d75e 94bf 4e60 9ebf
000000b0: c0a4 30bf b819 60c0 0b21 ebbf e7ca 0dbf
000000c0: b631 41c0 ed1a e1bf 9f3b 86bf 7c8a fbbf
000000d0: 44e3 643f 4029 2ac0 20ab debf 53e7 61bf
000000e0: 5551 ecbf de8f f7bf 4a23 cebf dd40 9bbf
000000f0: c1d2 1abf 7a17 14c0 1c09 e7bf 5d96 b9bf

conv_layers.4.weight f4 [64, 64, 3, 3]
-0.18063988 1.5536577 -0.56753534 -0.56251156 0.47736895 -1.0613611 0.23006818 -4.0249367
1.2200035 -0.081773676 -0.092780195 -1.450586 0.65905064 0.34500363 -0.78524923 0.010672737
-1.3898625 -0.19664766 -0.42463765 -3.1697545 0.75297815 0.27998334 0.38290367 -0.7312044
-1.0071849 -2.2258484 -0.53031796 -0.85386926 0.13800378 -0.5908641 -0.46879154 -0.0879185
0.43227404 0.7748353 0.20467277 0.77765065 -0.053570025 -0.8603193 0.34906277 0.16308749
-0.9830719 -1.1532096 0.073743574 -0.22792844 0.1386867 -1.4188145 -0.27165008 0.568268
-0.39262867 1.5609035 -0.41698393 -0.45236477 0.0101049375 -0.38972524 0.30806747 -0.4142058
-0.292335 0.61219776 0.4233268 0.77995306 -0.48424262 -0.3330069 0.105315275 0.07121484
-0.27099326 0.7546347 -0.13184994 0.010618296 -0.34268788 -0.48875624 -0.46420443 -1.9661129
-0.237586 -0.2426207 -0.035061877 -0.4616661 -0.22551493 0.1807001 0.93209773 0.12158596
0.21908152 -0.28886634 0.33378085 1.0859271 -0.121507235 -0.2557627 0.6210577 -0.11467059
0.67379487 -0.352671 0.1391743 0.05380625 0.07919933 -0.20466784 -0.16334978 0.33498237
0.14958194 0.06524793 0.016037842 -0.45328403 1.4632435 -0.14209317 -1.1571442 0.46213484
-0.91289866 -0.22145416 -2.4487824 1.057125 -0.61588323 -1.0482113 0.42930028 -1.2047424
0.45817214 0.68757707 1.0477344 -1.1103234 -2.0378466 -0.41975445 0.028713772 -0.18422611
0.4219542 0.5068618 1.2452625 -0.5552081 -0.9016515 0.2101655 0.12673567 0.10204678
-0.6424832 0.2555373 -0.08603883 -0.98337615 0.5059355 -1.8452101 0.45551023 0.49143338
-0.005286472 0.31770733 -0.38277218 -0.31113645 -0.036437478 -0.49681345 0.09522139 -1.0537156
-0.06872156 -0.093105 0.2762558 -0.24322377 0.28635198 -0.40539917 1.9669634 -0.2567804
2.5811625 -0.37693787 0.23223415 0.32985592 0.19051087 0.5296402 -2.3567097 -1.5785391
-0.061693978 0.9054514 -0.5195542 0.6775825 0.10388103 -0.09137772 -1.4081378 -0.9749087
0.5885275 0.10606987 -0.22292544 0.6105192 -0.51256305 -0.12631023 0.1998329 0.01493027
0.2234314 -0.17674534 1.1169788 0.7118339 0.20755276 0.3439103 -0.1297799 0.022970412
-0.013330356 -0.04817211 1.7510575 -0.11702091 -2.969978 -0.5748528 -0.85975796 -0.92302656
0.7453542 -0.8633024 -0.3055442 0.76453257 -3.2322006 -0.058087796 -0.07678532 0.03758347
-1.5038133 -0.14576134 -0.5973106 -0.35572088 0.16151528 -0.12906078 0.3024472 0.43453366
-0.8457298 0.21886453 1.0044777 0.49233243 -0.76004237 0.03684016 -1.280975 0.3467627
0.702771 0.34271297 -1.20672 -0.934317 0.3131012 -0.04158072 -0.7837109 1.0959624
1.0399758 0.42883182 -0.9155741 -1.5775441 0.41296467 -0.2604956 -0.32451668 0.6410327
-0.32278383 -0.4519926 -0.33135146 -0.4299703 0.11043987 0.3319133 -0.12807198 -0.64218074
0.8143426 -0.09406088 0.47368208 -0.05418915 1.0351492 -0.10977741 -0.8450236 -1.2369533
-3.0736723 -1.3074313 -0.36890116 0.38738972 0.2299255 -0.97164255 0.770492 -1.0530847
00000000: a9f9 38be 41de c63f ff49 11bf c200 10bf
00000010: b469 f43e aeda 87bf fe96 6b3e 48cc 80c0
00000020: 1329 9c3f f578 a7bd 8b03 bebd cdac b9bf
00000030: 8bb7 283f 51a4 b03e 1806 49bf b4dc 2e3c
00000040: 04e7 b1bf 015e 49be 1b6a d9be 42dd 4ac0
00000050: 2dc3 403f fa59 8f3e f30b c43e 3630 3bbf
00000060: 6feb 80bf 4d74 0ec0 ebc2 07bf 2d97 5abf
00000070: dd50 0d3e df42 17bf 7205 f0be 9d0e b4bd
00000080: 0653 dd3e 9b5b 463f bd95 513e 1d14 473f
00000090: 3e6c 5bbd e33d 5cbf 5bb8 b23e 6800 273e
000000a0: 9aaa 7bbf 5f9c 93bf df06 973d 1366 69be
000000b0: e303 0e3e b79b b5bf b815 8bbe 037a 113f
000000c0: a006 c9be b0cb c73f eb7e d5be 5b9c e7be
000000d0: 2e8f 253c 118a c7be 05bb 9d3e c812 d4be
000000e0: efac 95be feb8 1c3f 4abe d83e 01ab 473f
000000f0: a6ee f7be e17f aabe 89af d73d 16d9 913d
00000100: a1bf 8abe bd2f 413f ac03 07be 5df8 2d3c
00000110: c974 afbe 423e fabe 34ac edbe 96a9 fbbf
00000120: bf49 73be 9071 78be 0b9d 0fbd 805f ecbe
00000130: 63ed 66be 7209 393e f59d 6e3f 0f02 f93d
00000140: e856 603e 4ae6 93be 53e5 aa3e a9ff 8a3f
00000150: c9d8 f8bd 54f3 82be a3fd 1e3f 6ad8 eabd
00000160: d27d 2c3f 4b91 b4be b583 0e3e f163 5c3d
00000170: 4233 a23d 7294 51be 2a45 27be cf82 ab3e
00000180: 022c 193e b5a0 853d cb61 833c d814 e8be
00000190: 904b bb3f df80 11be 4d1d 94bf f09c ec3e
000001a0: bab3 69bf e1c4 62be dab8 1cc0 df4f 873f
000001b0: 86aa 1dbf ca2b 86bf 3fcd db3e 0035 9abf
000001c0: 8a95 ea3e 0d05 303f 291c 863f 141f 8ebf
000001d0: 146c 02c0 0eea d6be 2539 eb3c c5a5 3cbe
000001e0: 620a d83e b2c1 013f c364 9f3f 1e22 0ebf
000001f0: a2d2 66bf a035 573e ffc6 013e e7fd d03d
00000200: c779 24bf c9d5 823e 2035 b0bd 8abe 7bbf
00000210: fd84 013f d82f ecbf a338 e93e 289d fb3e
00000220: 243a adbb 89aa a23e b7fa c3be 474d 9fbe
00000230: 773f 15bd 555e febe 6f03 c33d 27e0 86bf
00000240: e4bd 8cbd d6ad bebd 6671 8d3e a70f 79be
00000250: ba9c 923e 7b90 cfbe 75c5 fb3f b878 83be
00000260: c431 2540 00fe c0be cace 6d3e e0e2 a83e
00000270: 4815 433e 8096 073f 55d4 16c0 920d cabf
00000280: d3b2 7cbd aacb 673f 8101 05bf 0c76 2d3f
00000290: 94bf d43d 3e24 bbbd dc3d b4bf 9e93 79bf
000002a0: bda9 163f 293b d93d 9146 64be fc4a 1c3f
000002b0: 5537 03bf 7857 01be ffa0 4c3e 179e 743c
000002c0: 33cb 643e bbfc 34be 29f9 8e3f bf3a 363f
000002d0: b688 543e 0315 b03e 06e5 04be 722c bc3c
000002e0: 9167 5abc 1e50 45bd a722 e03f a9a8 efbd
000002f0: 1f14 3ec0 8e29 13bf 1919 5cbf 784b 6cbf
00000300: 88cf 3e3f 6301 5dbf 4a70 9cbe 68b8 433f
00000310: 60dc 4ec0 78ed 6dbd 9f41 9dbd 20f1 193d
00000320: f47c c0bf 7642 15be 59e9 18bf 0c21 b6be
00000330: 4364 253e 8228 04be 5cda 9a3e 327b de3e
00000340: c081 58bf 061e 603e ba92 803f ff12 fc3e
00000350: 2392 42bf b5e5 163d fdf6 a3bf e18a b13e
00000360: cde8 333f 1378 af3e cd75 9abf 662f 6fbf
00000370: cd4e a03e 8c50 2abd 47a1 48bf 7f48 8c3f
00000380: ed1d 853f d88f db3e 1063 6abf f7ec c9bf
00000390: 1b70 d33e ae5f 85be 0d27 a6be b81a 243f
000003a0: ec43 a5be 936b e7be e6a6 a9be 1125 dcbe
000003b0: 4c2e e23d 8af0 a93e 4d25 03be f565 24bf
000003c0: c278 503f fea2 c0bd 7586 f23e 71f5 5dbd
000003d0: c57f 843f fbd2 e0bd 7753 58bf 7c54 9ebf
000003e0: 0cb7 44c0 e959 a7bf 9de0 bcbe f257 c63e
000003f0: 9771 6b3e 91bd 78bf f73e 453f 7bcb 86bf

conv_layers.4.bias f4 [64]
0.35155737 -0.2934895 0.007097286 -0.059460655 0.16632253 -0.29384354 -0.32399103 -0.030626584
-0.08533537 0.35174587 0.073116615 -0.13862006 -0.17448574 -0.06591458 -0.23956251 4.7916756
-0.6710929 -0.110482596 -0.52669936 -0.06267746 -0.96341765 0.19576769 1.4364395 -0.1964002
0.44360298 -0.054932542 -0.44827244 -1.0725969 -0.029994117 0.09843987 -0.3511713 -0.07533981
3.7815125 -2.4147537 -0.0010720035 1.9742173 -0.96302676 -0.070761755 -0.0011380109 1.290863
-0.5399231 -0.02311745 -0.32003224 -0.5219163 0.30198488 0.03430459 0.94718826 -0.24223293
-0.1398416 0.89520514 -0.033202063 -0.61115235 2.028909 -0.020821668 1.7107366 0.46921405
0.012499195 1.5900981 2.595868 -0.00220761 1.9305981 -0.5729851 0.41039124 0.08953473
00000000: 54ff b33e 4144 96be 5a90 e83b 048d 73bd
00000010: 7450 2a3e a972 96be 27e2 a5be 9ae4 fabc
00000020: 4fc4 aebd 0918 b43e 2abe 953d 6bf2 0dbe
00000030: 64ac 32be 39fe 86bd e04f 75be 6855 9940
00000040: bfcc 2bbf b344 e2bd c5d5 06bf 0a5d 80bd
00000050: 8aa2 76bf 5377 483e 40dd b73f 221d 49be
00000060: ee1f e33e f200 61bd f783 e5be db4a 89bf
00000070: 39b6 f5bc d89a c93d bacc b3be c24b 9abd
00000080: 4d04 7240 538b 1ac0 7882 8cba 27b3 fc3f
00000090: ec88 76bf 8aeb 90bd 4f29 95ba 003b a53f
000000a0: 6638 0abf ce60 bdbc 44db a3be 4e9c 05bf
000000b0: c39d 9a3e f882 0c3d ee7a 723f e90b 78be
000000c0: a332 0fbe 2a2c 653f e3fe 07bd 7b74 1cbf
000000d0: a5d9 0140 3492 aabc 6bf9 da3f d33c f03e
000000e0: 6cc9 4c3c 5688 cb3f b422 2640 8dad 10bb
000000f0: d71d f73f 27af 12bf cd1e d23e fc5d b73d

network.0.0.weight f4 [32, 5, 8, 8]
-0.24639414 -0.35235995 0.18758072 0.24725966 0.09096754 0.064267576 0.021288136 -0.051252097
-0.13695443 -0.16582091 0.06448892 0.3177273 0.3453412 0.11869828 0.007916853 -0.32000002
-0.09583927 -0.049378265 0.027164895 0.18024294 0.19917299 0.20993614 0.24720289 -0.11738932
-0.20606673 0.16622338 0.020908292 -0.06009818 0.028489782 0.2024202 0.21644469 -0.08769046
0.08749692 0.15802735 -0.04181776 0.023721032 -0.169397 0.1811957 0.3085911 -0.09613791
-0.040573154 0.041708227 -0.015728913 0.020527964 0.009157013 0.2243392 0.32399377 -0.047859542
-0.1709225 0.0061063226 -0.020507868 -0.010283417 0.07895339 0.11268616 0.13589075 0.019653132
0.011603402 0.05719081 0.09769416 -0.031222526 0.12217351 0.044813797 0.03576079 0.08758517
-0.2513441 -0.090481415 -0.12225424 -0.20668706 0.15314057 0.10070215 0.033020947 -0.40700862
-0.22422597 0.18154016 0.014674256 -0.16316178 -0.11272393 -0.1560912 -0.068086356 -0.4984178
-0.13880141 0.099546544 -0.20807388 -0.12412538 -0.14823453 -0.29780367 -0.21864977 -0.23099788
-0.24287511 -0.029723488 -0.23966622 -0.021589097 0.011163811 -0.129205 -0.20000204 -0.22622994
-0.03954925 0.057885535 0.04893943 0.0722892 0.29287127 0.14610466 0.22063291 0.09354408
-0.19589637 -0.031612497 0.09598739 0.062343452 0.30769622 0.19319554 0.2399429 0.13233753
-0.024150532 0.023078002 0.013866387 -0.021988006 -0.048932068 0.012498981 0.020767832 0.1522991
0.20918187 0.07761973 -0.037214924 0.01245361 0.08028459 0.10884514 -0.010541605 0.20908922
0.20944038 -0.027761405 -0.28175354 -0.302902 0.2786598 0.11492621 -0.06435229 -0.17194185
0.25665697 0.057937898 -0.56025416 -0.4512883 0.079995856 -0.21044542 -0.3147028 -0.1761796
0.34310934 0.27149856 -0.29001266 -0.4535105 -0.20489904 -0.11718389 -0.18912417 -0.21585841
-0.124332786 -0.25511548 -0.362737 -0.40400368 -0.070460334 0.0050694165 -0.04687937 -0.07243038
-0.16264234 -0.05912925 -0.42823288 -0.210912 0.13700964 0.04911695 -0.07747246 -0.14538118
-0.30478805 -0.2911186 -0.33742505 -0.041556243 0.18508668 0.15945475 -0.0932071 -0.101764
0.001379766 -0.18105559 -0.028947541 -0.020021737 -0.026153864 0.17888598 0.056113087 0.01658216
-0.00904164 0.14306082 0.18974508 0.1452499 0.068552546 0.091409296 0.19278519 0.13115391
-0.0029281264 -0.023984037 -0.038615324 -0.07803734 0.0031032143 0.08975499 -0.0068534156 -0.08067175
-0.069216624 -0.093705416 -0.16159452 -0.3146907 -0.15596761 0.023631241 -0.120635144 -0.2067678
-0.3170891 -0.24100512 -0.33207113 -0.08783419 -0.0765067 -0.06983991 -0.07924405 -0.088114895
-0.10601275 -0.085241675 -0.40780827 -0.1666318 -0.013841894 0.058642104 0.037909277 -0.023838788
0.09246204 -0.45620093 -0.6895376 -0.4490309 -0.058403887 0.062878035 -0.06022958 -0.23527546
-0.013456516 -0.25279674 -0.4809288 -0.41385257 -0.0012902779 0.047260214 -0.014454746 -0.033356603
-0.005734472 0.016729739 -0.094763204 -0.2017479 -0.11412707 -0.0031728405 -0.11594816 -0.053074807
-0.045530006 0.22984655 0.17865938 0.048546493 0.069762096 -0.035227515 -0.061083794 0.09720791
00000000: bf4e 7cbe 8668 b4be 2915 403e a331 7d3e
00000010: 314d ba3d b89e 833d 7564 ae3c b8ed 51bd
00000020: c83d 0cbe f5cc 29be c412 843d 27ad a23e
00000030: 90d0 b03e 1518 f33d b0b5 013c 0bd7 a3be
00000040: 6147 c4bd dd40 4abd ea88 de3c 9b91 383e
00000050: 01f4 4b3e 80f9 563e c122 7d3e d069 f0bd
00000060: 2803 53be 7636 2a3e de47 ab3c 8229 76bd
00000070: 6763 e93c 3e47 4f3e ada3 5d3e 0e97 b3bd
00000080: 9631 b33d ecd1 213e 1949 2bbd 9c52 c23c
00000090: 6876 2dbe 5e8b 393e a7ff 9d3e f4e3 c4bd
000000a0: 0930 26bd 3fd6 2a3d ecd9 80bc 432a a83c
000000b0: 4c07 163c 2db9 653e 83e2 a53e 5e08 44bd
000000c0: 4f06 2fbe 8c17 c83b 1e00 a8bc c77b 28bc
000000d0: 51b2 a13d 00c8 e63d f226 0b3e 9bff a03c
000000e0: 321c 3e3c e940 6a3d e013 c83d 62c6 ffbc
000000f0: 1b36 fa3d ac8e 373d e879 123d db5f b33d
00000100: 2db0 80be 524e b9bd 6e60 fabd c6a5 53be
00000110: e2d0 1c3e ee3c ce3d f940 073d 6f63 d0be
00000120: 7e9b 65be aae5 393e 4a6c 703c e213 27be
00000130: cedb e6bd 5fd6 1fbe dc70 8bbd 9e30 ffbe
00000140: f521 0ebe 0fdf cb3d 5211 55be 7235 febd
00000150: cbca 17be b979 98be bae5 5fbe b58a 6cbe
00000160: 41b4 78be ac7e f3bc 106b 75be 9edb b0bc
00000170: 6be8 363c 514e 04be 56cd 4cbe d2a8 67be
00000180: 65fe 21bd 6219 6d3d b674 483d 5c0c 943d
00000190: 39f3 953e 769c 153e 98ed 613e 0a94 bf3d
000001a0: 0f99 48be 1b7c 01bd 0995 c43d d95b 7f3d
000001b0: 5c8a 9d3e 0dd5 453e 97b3 753e 7d83 073e
000001c0: 56d7 c5bc 140e bd3c d82f 633c 3120 b4bc
000001d0: fe6c 48bd 87c8 4c3c 4d21 aa3c 4cf4 1b3e
000001e0: c633 563e 18f7 9e3d ad6e 18bd 3a0a 4c3c
000001f0: 3f6c a43d 33ea de3d b2b6 2cbc 7c1b 563e
00000200: 8a77 563e e36b e3bc 0042 90be f915 9bbe
00000210: 7fac 8e3e 6f5e eb3d 22cb 83bd 8611 30be
00000220: 8b68 833e 4a50 6d3d d16c 0fbf 430f e7be
00000230: ded4 a33d 017f 57be ba20 a1be 6d68 34be
00000240: 07ac af3e dc01 8b3e 8a7c 94be 8732 e8be
00000250: 0ed1 51be 1bfe efbd c4a9 41be fd09 5dbe
00000260: 30a2 febd 7f9e 82be aab8 b9be 92d9 cebe
00000270: 824d 90bd 591d a63b 9504 40bd 6156 94bd
00000280: b78b 26be 8331 72bd 5741 dbbe 51f9 57be
00000290: 414c 0c3e db2e 493d e2a9 9ebd cede 14be
000002a0: 2e0d 9cbe 7f0d 95be fac2 acbe e136 2abd
000002b0: 5d87 3d3e 1b48 233e 5de3 bebd a569 d0bd
000002c0: 44d9 b43a a366 39be 6523 edbc a004 a4bc
000002d0: a140 d6bc e32d 373e d6d6 653d 4fd7 873c
000002e0: 6323 14bc 897e 123e 894c 423e 64bc 143e
000002f0: 4765 8c3d cc34 bb3d 7b69 453e 364d 063e
00000300: cfe5 3fbb 2c7a c4bc 1a2b 1ebd 0ad2 9fbd
00000310: 4c5f 4b3b 77d1 b73d 9e92 e0bb 3b37 a5bd
00000320: 72c1 8dbd a0e8 bfbd 0979 25be 241f a1be
00000330: f9b5 1fbe 4e96 c13c 8f0f f7bd f0ba 53be
00000340: 8159 a2be 0cca 76be 3a05 aabe 69e2 b3bd
00000350: 8baf 9cbd 3a08 8fbd b44a a2bd 9575 b4bd
00000360: 361d d9bd 3093 aebd 3fcc d0be 87a1 2abe
00000370: 1dc9 62bc b432 703d c246 1b3d 9049 c3bc
00000380: bd5c bd3d 2b93 e9be 8985 30bf 61e7 e5be
00000390: ea38 6fbd 33c6 803d 4bb3 76bd 0dec 70be
000003a0: b878 5cbc 936e 81be 4d3c f6be 7ce4 d3be
000003b0: 8b1e a9ba ed93 413d 99d3 6cbc efa0 08bd
000003c0: 3de8 bbbb ce0c 893c 3613 c2bd 0097 4ebe
000003d0: 74bb e9bd 6eef 4fbb 3b76 edbd f864 59bd
000003e0: ac7d 3abd e55c 6b3e 7cf2 363e b0d8 463d
000003f0: 6edf 8e3d ba4a 10bd 0033 7abd f114 c73d

network.0.0.bias f4 [32]
0.013250865 0.17410614 0.10114208 -0.06079562 1.64837 0.12731478 0.05514513 0.2304972
0.05957464 0.23310582 0.13822503 0.12876785 0.1053829 0.098815516 0.2261544 -0.70919126
0.072605774 -0.06588511 0.14203756 0.27406234 0.06844462 0.06171908 -1.271306 -0.052143272
-0.007320426 0.40328377 0.13214439 0.23075514 -0.40351835 0.06282733 0.033619888 -0.4449444
00000000: 281a 593c e148 323e 9423 cf3d d404 79bd
00000010: cafd d23f ce5e 023e dcdf 613d 7507 6c3e
00000020: 8a04 743d 4bb3 6e3e dd8a 0d3e b8db 033e
00000030: fdd2 d73d ca5f ca3d 0595 673e 8f8d 35bf
00000040: 56b2 943d c6ee 86bd 4b72 113e e651 8c3e
00000050: b12c 8c3d 25cd 7c3d 28ba a2bf 2f94 55bd
00000060: 2fe0 efbb 367b ce3e dc50 073e 134b 6c3e
00000070: f599 cebe 9dab 803d 02b5 093d c1cf e3be

network.0.2.weight f4 [64, 32, 4, 4]
-0.089438766 -0.23164931 0.1725916 -0.019773854 0.11889584 0.3022605 -0.14314143 -0.29297495
-0.40381372 -0.31115565 -0.23132353 0.0700738 -0.007515372 -0.007963322 0.11481668 -0.13207926
0.18111399 0.101731256 -0.08169957 0.07639215 -0.0033095193 -0.5190072 -0.17461362 0.10511921
-0.38407874 -0.2095705 -0.09783491 -0.30219772 0.102763094 -0.15420161 0.12706411 -0.09945135
0.25673768 -0.023000062 0.13295163 0.19154489 -0.27408418 0.037458032 0.19381984 -0.16759455
0.0040700873 -0.1824884 -0.13701838 0.22925556 0.12613244 -0.05794985 0.23412928 0.15895729
0.22873197 -0.12118411 -0.013740388 0.17022222 0.023511512 -0.14596304 -0.08605348 -0.17298244
0.18551451 0.107538074 -0.25776014 -0.14640407 0.05990895 -0.03841248 -0.30625182 0.04645837
0.27836427 0.19721837 0.10033262 0.47131345 0.115034334 0.29364207 -0.6751003 -0.5015833
0.77492166 -0.84601516 -0.22009583 0.29902875 0.10804105 -0.17590944 0.372997 -0.6501361
-0.16628739 0.18755098 -0.534894 0.12888479 0.18220896 0.30796894 0.20197582 -0.04540553
0.30391246 0.21996959 -0.074908786 0.10192782 -0.2547371 -0.13377896 0.06315679 -0.019223677
0.29705068 -0.36233506 0.40331727 0.17966442 0.31816745 0.085711226 0.03909894 -0.05029825
-0.1661827 -0.6971497 -0.35141137 0.07995205 -0.027033785 0.06722766 -0.09553147 -0.16363083
-0.019239465 0.10831533 -0.21630168 -0.022204923 0.17411183 -0.10602539 0.12064034 0.06622605
-0.14708139 0.10532292 0.021481773 0.096451186 0.14832824 -0.10414081 -0.04641621 -0.14525057
-0.44206086 -0.0030116322 0.18680555 0.24629253 -0.09049106 -0.19784611 -0.106845275 0.062350437
0.22062336 -0.156139 -0.24741419 0.004850759 0.26652327 0.17705102 -0.100633964 -0.05033284
-0.15870818 -0.15289588 -0.21058717 0.45777532 -0.06813923 0.0075007584 -0.0477986 -0.056465156
-0.25446138 0.10637107 -0.13205916 0.023188662 -0.26416975 -0.04798762 -0.02456778 -0.119248666
-0.18463527 -0.21639918 0.045797396 0.098688774 -0.065302044 -0.42200705 -0.3865066 -0.019937998
-0.47438368 -0.15106398 -0.18834844 0.24452314 -0.05819084 0.0659407 0.06532195 0.24421397
0.27417064 -0.044275172 -0.12489267 0.5489657 -0.27829024 0.8005134 -0.53974766 0.036216553
0.07686673 -0.47100374 0.045374148 0.02316782 0.5070205 -0.5815224 0.24803457 -0.5446143
0.08621549 -0.05043082 -0.18005143 -0.0700939 0.1579933 0.07110875 -0.1539402 -0.19645491
-0.12622221 0.33732903 0.11379741 -0.017803064 0.4049067 -0.3282858 -0.10698651 -0.19967754
0.23256476 -0.20932746 -0.18780264 -0.04533864 -0.15120377 -0.18935747 -0.061374 -0.08663502
0.09678768 -0.13024865 -0.031439885 -0.05412849 0.0946889 -0.07160562 0.40510148 0.24491076
0.040090557 -0.3109221 -0.2763991 0.25196648 -0.24273463 -0.10007187 -0.11193278 -0.41508263
-0.25251302 0.21475868 0.20696057 0.010174025 -0.25251627 -0.1883667 0.2398673 -0.13123468
-0.45606285 -0.059277713 -0.84798354 0.39270228 -0.3078057 -0.88109964 0.30271664 -0.3360021
0.13645904 1.4131005 0.16258961 0.21448043 0.18820414 -0.13331392 0.7276682 -1.369145
00000000: ac2b b7bd 7a35 6dbe dabb 303e c7fc a1bc
00000010: aa7f f33d e3c1 9a3e ab93 12be d000 96be
00000020: acc0 cebe cb4f 9fbe 13e0 6cbe da82 8f3d
00000030: 8243 f6bb 9878 02bc 0225 eb3d c93f 07be
00000040: f275 393e 7a58 d03d 1b52 a7bd 7d73 9c3d
00000050: 85e4 58bb a8dd 04bf eacd 32be be48 d73d
00000060: f8a5 c4be a699 56be ab5d c8bd a9b9 9abe
00000070: 7575 d23d 07e7 1dbe 181d 023e 26ad cbbd
00000080: 1f73 833e a06a bcbc 7924 083e 5824 443e
00000090: c354 8cbe 986d 193d b578 463e e89d 2bbe
000000a0: 5e5e 853b 3dde 3abe 8c4e 0cbe f8c1 6a3e
000000b0: dd28 013e d25c 6dbd 96bf 6f3e b3c5 223e
000000c0: b738 6a3e 602f f8bd 5d1f 61bc bc4e 2e3e
000000d0: 379b c03c 5677 15be cf3c b0bd 4f22 31be
000000e0: 84f7 3d3e ec3c dc3d 23f9 83be f3ea 15be
000000f0: 1663 753d 6856 1dbd 0acd 9cbe 224b 3e3d
00000100: c385 8e3e 9df3 493e 307b cd3d ff4f f13e
00000110: 1f97 eb3d 4158 963e 60d3 2cbf c367 00bf
00000120: 4461 463f 7394 58bf cd60 61be 4c1a 993e
00000130: a044 dd3d 9b21 34be 76f9 be3e 526f 26bf
00000140: 3e47 2abe 5d0d 403e d0ee 08bf 60fa 033e
00000150: fc94 3a3e 1bae 9d3e c0d2 4e3e 26fb 39bd
00000160: 6a9a 9b3e b53f 613e c769 99bd 88bf d03d
00000170: e76c 82be 5afd 08be 5958 813d f97a 9dbc
00000180: 0717 983e fb83 b9be 9a7f ce3e f3f9 373e
00000190: d8e6 a23e 5e89 af3d 3626 203d 8a05 4ebd
000001a0: cc2b 2abe 6778 32bf 31ec b3be e6bd a33d
000001b0: f575 ddbc a8ae 893d 01a6 c3bd d78e 27be
000001c0: 159c 9dbc 6ed4 dd3d 307e 5dbe 19e7 b5bc
000001d0: 5f4a 323e d723 d9bd 4812 f73d 86a1 873d
000001e0: 819c 16be 8bb3 d73d 8bfa af3c 3388 c53d
000001f0: 5ce3 173e c747 d5bd ec1e 3ebd 91bc 14be
00000200: cd55 e2be ce5e 45bb f449 3f3e 1c34 7c3e
00000210: 6053 b9bd 2c98 4abe b2d1 dabd 2c63 7f3d
00000220: 17eb 613e e7e2 1fbe 255a 7dbe 1ef3 9e3b
00000230: bd75 883e dd4c 353e 2e19 cebd cf29 4ebd
00000240: 6684 22be bd90 1cbe 2aa4 57be 8761 ea3e
00000250: 958c 8bbd ecc8 f53b 77c8 43bd 0248 67bd
00000260: c348 82be 13d9 d93d 843a 07be 26f6 bd3c
00000270: 4241 87be ab8e 44bd 5e42 c9bc a538 f4bd
00000280: 0711 3dbe bf97 5dbe 0d96 3b3d 571d ca3d
00000290: 14bd 85bd 4f11 d8be 31e4 c5be 0355 a3bc
000002a0: 6be2 f2be 84b0 1abe 6ade 40be 4664 7a3e
000002b0: 8559 6ebd eb0b 873d 84c7 853d 3a13 7a3e
000002c0: 1860 8c3e e259 35bd bac7 ffbd 0489 0c3f
000002d0: 0f7c 8ebe 72ee 4c3f e72c 0abf cf57 143d
000002e0: 4e6c 9d3d 6727 f1be 3eda 393d 71ca bd3c
000002f0: 18cc 013f a7de 14bf c6fc 7d3e d86b 0bbf
00000300: bf91 b03d 8c90 4ebd 675f 38be 648d 8fbd
00000310: ffc8 213e 77a1 913d 80a2 1dbe 7a2b 49be
00000320: 6540 01be 64b6 ac3e 9e0e e93d bbd7 91bc
00000330: ee4f cf3e 1415 a8be be1b dbbd 4578 4cbe
00000340: 7525 6e3e f059 56be 564f 40be 03b5 39bd
00000350: 29d5 1abe ede6 41be 4e63 7bbd b46d b1bd
00000360: 9f38 c63d e75f 05be 1cc7 00bd d6b5 5dbd
00000370: 41ec c13d f8a5 92bd 7669 cf3e e3c9 7a3e
00000380: ff35 243d 2e31 9fbe 2f84 8dbe c001 813e
00000390: 6d8f 78be 7bf2 ccbd 033d e5bd b685 d4be
000003a0: 6349 81be b3e9 5b3e 79ed 533e f4b0 263c
000003b0: d049 81be 33e3 40be c69f 753e 6262 06be
000003c0: 1281 e9be 30cd 72bd 7315 59bf 4610 c93e
000003d0: b598 9dbe bf8f 61bf adfd 9a3e 7808 acbe
000003e0: ebbb 0b3e 7ae0 b43f e47d 263e c2a0 5b3e
000003f0: 96b8 403e 7283 08be 7748 3a3f 2540 afbf

network.0.2.bias f4 [64]
-2.9277358 -0.7036675 -2.0162852 -1.6141481 1.4851832 -0.7231969 -3.6829107 -1.7649273
-0.743351 -3.3500805 0.04165203 -0.91951406 -2.9920113 -2.0706503 -1.2257668 -0.8810144
-3.3558803 -0.83214813 -0.9676653 -1.0687695 -1.6981611 -1.330846 -1.5773901 0.7164892
-2.4947956 -1.5110925 1.3134137 -4.4324913 -0.59647894 -1.8147519 -3.9594183 0.1679175
-0.4523199 -2.1507027 -1.2358217 -1.9709218 -1.1672726 -0.41944954 -0.5604657 -1.8177017
-0.6763352 -1.2571033 -1.1591443 -1.237314 -0.6900139 -3.5015697 -1.8369459 -0.5538773
-3.018659 -1.7586342 -1.0486945 -1.9651637 0.8940928 -2.6587677 -1.7395973 -0.882436
-1.846232 -1.934078 -1.6104519 -1.212917 -0.60477835 -2.313933 -1.8049655 -1.4499012
00000000: 0660 3bc0 8e23 34bf d10a 01c0 689c cebf
00000010: 7c1a be3f 6f23 39bf cfb4 6bc0 23e9 e1bf
00000020: 404c 3ebf b867 56c0 529b 2a3d 4665 6bbf
00000030: 1d7d 3fc0 8985 04c0 ede5 9cbf 298a 61bf
00000040: bec6 56c0 a907 55bf eab8 77bf 70cd 88bf
00000050: 585d d9bf 2959 aabf ebe7 c9bf d66b 373f
00000060: bbaa 1fc0 7b6b c1bf f11d a83f f8d6 8dc0
00000070: d8b2 18bf ca49 e8bf 1c67 7dc0 91f2 2b3e
00000080: 7996 e7be 1da5 09c0 682f 9ebf 2a47 fcbf
00000090: 3069 95bf 17c2 d6be ae7a 0fbf 73aa e8bf
000000a0: 4e24 2dbf c3e8 a0bf d75e 94bf 4e60 9ebf
000000b0: c0a4 30bf b819 60c0 0b21 ebbf e7ca 0dbf
000000c0: b631 41c0 ed1a e1bf 9f3b 86bf 7c8a fbbf
000000d0: 44e3 643f 4029 2ac0 20ab debf 53e7 61bf
000000e0: 5551 ecbf de8f f7bf 4a23 cebf dd40 9bbf
000000f0: c1d2 1abf 7a17 14c0 1c09 e7bf 5d96 b9bf

network.0.4.weight f4 [64, 64, 3, 3]
-0.18063988 1.5536577 -0.56753534 -0.56251156 0.47736895 -1.0613611 0.23006818 -4.0249367
1.2200035 -0.081773676 -0.092780195 -1.450586 0.65905064 0.34500363 -0.78524923 0.010672737
-1.3898625 -0.19664766 -0.42463765 -3.1697545 0.75297815 0.27998334 0.38290367 -0.7312044
-1.0071849 -2.2258484 -0.53031796 -0.85386926 0.13800378 -0.5908641 -0.46879154 -0.0879185
0.43227404 0.7748353 0.20467277 0.77765065 -0.053570025 -0.8603193 0.34906277 0.16308749
-0.9830719 -1.1532096 0.073743574 -0.22792844 0.1386867 -1.4188145 -0.27165008 0.568268
-0.39262867 1.5609035 -0.41698393 -0.45236477 0.0101049375 -0.38972524 0.30806747 -0.4142058
-0.292335 0.61219776 0.4233268 0.77995306 -0.48424262 -0.3330069 0.105315275 0.07121484
-0.27099326 0.7546347 -0.13184994 0.010618296 -0.34268788 -0.48875624 -0.46420443 -1.9661129
-0.237586 -0.2426207 -0.035061877 -0.4616661 -0.22551493 0.1807001 0.93209773 0.12158596
0.21908152 -0.28886634 0.33378085 1.0859271 -0.121507235 -0.2557627 0.6210577 -0.11467059
0.67379487 -0.352671 0.1391743 0.05380625 0.07919933 -0.20466784 -0.16334978 0.33498237
0.14958194 0.06524793 0.016037842 -0.45328403 1.4632435 -0.14209317 -1.1571442 0.46213484
-0.91289866 -0.22145416 -2.4487824 1.057125 -0.61588323 -1.0482113 0.42930028 -1.2047424
0.45817214 0.68757707 1.0477344 -1.1103234 -2.0378466 -0.41975445 0.028713772 -0.18422611
0.4219542 0.5068618 1.2452625 -0.5552081 -0.9016515 0.2101655 0.12673567 0.10204678
-0.6424832 0.2555373 -0.08603883 -0.98337615 0.5059355 -1.8452101 0.45551023 0.49143338
-0.005286472 0.31770733 -0.38277218 -0.31113645 -0.036437478 -0.49681345 0.09522139 -1.0537156
-0.06872156 -0.093105 0.2762558 -0.24322377 0.28635198 -0.40539917 1.9669634 -0.2567804
2.5811625 -0.37693787 0.23223415 0.32985592 0.19051087 0.5296402 -2.3567097 -1.5785391
-0.061693978 0.9054514 -0.5195542 0.6775825 0.10388103 -0.09137772 -1.4081378 -0.9749087
0.5885275 0.10606987 -0.22292544 0.6105192 -0.51256305 -0.12631023 0.1998329 0.01493027
0.2234314 -0.17674534 1.1169788 0.7118339 0.20755276 0.3439103 -0.1297799 0.022970412
-0.013330356 -0.04817211 1.7510575 -0.11702091 -2.969978 -0.5748528 -0.85975796 -0.92302656
0.7453542 -0.8633024 -0.3055442 0.76453257 -3.2322006 -0.058087796 -0.07678532 0.03758347
-1.5038133 -0.14576134 -0.5973106 -0.35572088 0.16151528 -0.12906078 0.3024472 0.43453366
-0.8457298 0.21886453 1.0044777 0.49233243 -0.76004237 0.03684016 -1.280975 0.3467627
0.702771 0.34271297 -1.20672 -0.934317 0.3131012 -0.04158072 -0.7837109 1.0959624
1.0399758 0.42883182 -0.9155741 -1.5775441 0.41296467 -0.2604956 -0.32451668 0.6410327
-0.32278383 -0.4519926 -0.33135146 -0.4299703 0.11043987 0.3319133 -0.12807198 -0.64218074
0.8143426 -0.09406088 0.47368208 -0.05418915 1.0351492 -0.10977741 -0.8450236 -1.2369533
-3.0736723 -1.3074313 -0.36890116 0.38738972 0.2299255 -0.97164255 0.770492 -1.0530847
00000000: a9f9 38be 41de c63f ff49 11bf c200 10bf
00000010: b469 f43e aeda 87bf fe96 6b3e 48cc 80c0
00000020: 1329 9c3f f578 a7bd 8b03 bebd cdac b9bf
00000030: 8bb7 283f 51a4 b03e 1806 49bf b4dc 2e3c
00000040: 04e7 b1bf 015e 49be 1b6a d9be 42dd 4ac0
00000050: 2dc3 403f fa59 8f3e f30b c43e 3630 3bbf
00000060: 6feb 80bf 4d74 0ec0 ebc2 07bf 2d97 5abf
00000070: dd50 0d3e df42 17bf 7205 f0be 9d0e b4bd
00000080: 0653 dd3e 9b5b 463f bd95 513e 1d14 473f
00000090: 3e6c 5bbd e33d 5cbf 5bb8 b23e 6800 273e
000000a0: 9aaa 7bbf 5f9c 93bf df06 973d 1366 69be
000000b0: e303 0e3e b79b b5bf b815 8bbe 037a 113f
000000c0: a006 c9be b0cb c73f eb7e d5be 5b9c e7be
000000d0: 2e8f 253c 118a c7be 05bb 9d3e c812 d4be
000000e0: efac 95be feb8 1c3f 4abe d83e 01ab 473f
000000f0: a6ee f7be e17f aabe 89af d73d 16d9 913d
00000100: a1bf 8abe bd2f 413f ac03 07be 5df8 2d3c
00000110: c974 afbe 423e fabe 34ac edbe 96a9 fbbf
00000120: bf49 73be 9071 78be 0b9d 0fbd 805f ecbe
00000130: 63ed 66be 7209 393e f59d 6e3f 0f02 f93d
00000140: e856 603e 4ae6 93be 53e5 aa3e a9ff 8a3f
00000150: c9d8 f8bd 54f3 82be a3fd 1e3f 6ad8 eabd
00000160: d27d 2c3f 4b91 b4be b583 0e3e f163 5c3d
00000170: 4233 a23d 7294 51be 2a45 27be cf82 ab3e
00000180: 022c 193e b5a0 853d cb61 833c d814 e8be
00000190: 904b bb3f df80 11be 4d1d 94bf f09c ec3e
000001a0: bab3 69bf e1c4 62be dab8 1cc0 df4f 873f
000001b0: 86aa 1dbf ca2b 86bf 3fcd db3e 0035 9abf
000001c0: 8a95 ea3e 0d05 303f 291c 863f 141f 8ebf
000001d0: 146c 02c0 0eea d6be 2539 eb3c c5a5 3cbe
000001e0: 620a d83e b2c1 013f c364 9f3f 1e22 0ebf
000001f0: a2d2 66bf a035 573e ffc6 013e e7fd d03d
00000200: c779 24bf c9d5 823e 2035 b0bd 8abe 7bbf
00000210: fd84 013f d82f ecbf a338 e93e 289d fb3e
00000220: 243a adbb 89aa a23e b7fa c3be 474d 9fbe
00000230: 773f 15bd 555e febe 6f03 c33d 27e0 86bf
00000240: e4bd 8cbd d6ad bebd 6671 8d3e a70f 79be
00000250: ba9c 923e 7b90 cfbe 75c5 fb3f b878 83be
00000260: c431 2540 00fe c0be cace 6d3e e0e2 a83e
00000270: 4815 433e 8096 073f 55d4 16c0 920d cabf
00000280: d3b2 7cbd aacb 673f 8101 05bf 0c76 2d3f
00000290: 94bf d43d 3e24 bbbd dc3d b4bf 9e93 79bf
000002a0: bda9 163f 293b d93d 9146 64be fc4a 1c3f
000002b0: 5537 03bf 7857 01be ffa0 4c3e 179e 743c
000002c0: 33cb 643e bbfc 34be 29f9 8e3f bf3a 363f
000002d0: b688 543e 0315 b03e 06e5 04be 722c bc3c
000002e0: 9167 5abc 1e50 45bd a722 e03f a9a8 efbd
000002f0: 1f14 3ec0 8e29 13bf 1919 5cbf 784b 6cbf
00000300: 88cf 3e3f 6301 5dbf 4a70 9cbe 68b8 433f
00000310: 60dc 4ec0 78ed 6dbd 9f41 9dbd 20f1 193d
00000320: f47c c0bf 7642 15be 59e9 18bf 0c21 b6be
00000330: 4364 253e 8228 04be 5cda 9a3e 327b de3e
00000340: c081 58bf 061e 603e ba92 803f ff12 fc3e
00000350: 2392 42bf b5e5 163d fdf6 a3bf e18a b13e
00000360: cde8 333f 1378 af3e cd75 9abf 662f 6fbf
00000370: cd4e a03e 8c50 2abd 47a1 48bf 7f48 8c3f
00000380: ed1d 853f d88f db3e 1063 6abf f7ec c9bf
00000390: 1b70 d33e ae5f 85be 0d27 a6be b81a 243f
000003a0: ec43 a5be 936b e7be e6a6 a9be 1125 dcbe
000003b0: 4c2e e23d 8af0 a93e 4d25 03be f565 24bf
000003c0: c278 503f fea2 c0bd 7586 f23e 71f5 5dbd
000003d0: c57f 843f fbd2 e0bd 7753 58bf 7c54 9ebf
000003e0: 0cb7 44c0 e959 a7bf 9de0 bcbe f257 c63e
000003f0: 9771 6b3e 91bd 78bf f73e 453f 7bcb 86bf

network.0.4.bias f4 [64]
0.35155737 -0.2934895 0.007097286 -0.059460655 0.16632253 -0.29384354 -0.32399103 -0.030626584
-0.08533537 0.35174587 0.073116615 -0.13862006 -0.17448574 -0.06591458 -0.23956251 4.7916756
-0.6710929 -0.110482596 -0.52669936 -0.06267746 -0.96341765 0.19576769 1.4364395 -0.1964002
0.44360298 -0.054932542 -0.44827244 -1.0725969 -0.029994117 0.09843987 -0.3511713 -0.07533981
3.7815125 -2.4147537 -0.0010720035 1.9742173 -0.96302676 -0.070761755 -0.0011380109 1.290863
-0.5399231 -0.02311745 -0.32003224 -0.5219163 0.30198488 0.03430459 0.94718826 -0.24223293
-0.1398416 0.89520514 -0.033202063 -0.61115235 2.028909 -0.020821668 1.7107366 0.46921405
0.012499195 1.5900981 2.595868 -0.00220761 1.9305981 -0.5729851 0.41039124 0.08953473
00000000: 54ff b33e 4144 96be 5a90 e83b 048d 73bd
00000010: 7450 2a3e a972 96be 27e2 a5be 9ae4 fabc
00000020: 4fc4 aebd 0918 b43e 2abe 953d 6bf2 0dbe
00000030: 64ac 32be 39fe 86bd e04f 75be 6855 9940
00000040: bfcc 2bbf b344 e2bd c5d5 06bf 0a5d 80bd
00000050: 8aa2 76bf 5377 483e 40dd b73f 221d 49be
00000060: ee1f e33e f200 61bd f783 e5be db4a 89bf
00000070: 39b6 f5bc d89a c93d bacc b3be c24b 9abd
00000080: 4d04 7240 538b 1ac0 7882 8cba 27b3 fc3f
00000090: ec88 76bf 8aeb 90bd 4f29 95ba 003b a53f
000000a0: 6638 0abf ce60 bdbc 44db a3be 4e9c 05bf
000000b0: c39d 9a3e f882 0c3d ee7a 723f e90b 78be
000000c0: a332 0fbe 2a2c 653f e3fe 07bd 7b74 1cbf
000000d0: a5d9 0140 3492 aabc 6bf9 da3f d33c f03e
000000e0: 6cc9 4c3c 5688 cb3f b422 2640 8dad 10bb
000000f0: d71d f73f 27af 12bf cd1e d23e fc5d b73d
